Example world4-1 fast accel/best_ind_gen2259/W1.npy (npy, 5888 bytes, 1 tensors)

array f8 [9, 80]
0	0xbfeab054f09b1745	-0.8340248774845597
1	0xbfd982729853e7eb	-0.3985868918967969
2	0x3fbde1239343bb85	0.1167165979893366
3	0xbfc8a7ed27b6e232	-0.19262470664195203
4	0xbfc2aca94951b68b	-0.14589420394934324
5	0x3feaec16b5b257b5	0.8413194226038657
6	0x3fecf3505d6f5ed7	0.9047014069464819
7	0x3fe622bfd28643ab	0.6917418586545997
8	0x3fdee5df33cfc399	0.4827802663776822
9	0x3ff0000000000000	1.0
10	0xbfefbad040306723	-0.9915543798153731
11	0x3fe7d88703622fbe	0.7451815668186936
12	0x3fe08f6034d436d9	0.5175019294562971
13	0xbfefdb6d1d2ee283	-0.9955354280455854
14	0xbfe01555e1a29350	-0.5026044279989978
15	0x3fe3e38690c8b35e	0.6215241267978902
16	0xbfc8e4b2b029d57a	-0.194479309098522
17	0xbfe35d0cb3c8c526	-0.605108595982675
18	0xbfeffffbe5ef6bac	-0.9999980441019622
19	0xbfa3f7cef497eb57	-0.03900000320205404
20	0xbfee6ec8560154e7	-0.9510232620038125
21	0x3fddec3b858688e8	0.46754348792650413
22	0x3fb0e12a6426d460	0.06593575425252274
23	0x3fe254bb9e6c0b70	0.5728433698826461
24	0x3faec00d6e42bf0d	0.06005899401622914
25	0xbfe984ca84396cd7	-0.7974598486429397
26	0xbfe89bcd98a1a9be	-0.7690189343532479
27	0xbfc33f16acf2e727	-0.1503628105618244
28	0x3fe0c08337b7645f	0.5235000694475608
29	0xbfeea2dcc5e0e4d8	-0.9573806633772177
30	0x3fc4d51ed7931f76	0.16275392080410328
31	0x3fde26a2af6ac3dd	0.47110812311717415
32	0xbfeffaec5d880dcb	-0.9993802859102571
33	0xbfb02481ad959b0b	-0.06305704582119291
34	0xbfeb105faef49ae4	-0.8457487504100212
35	0x3fd4102566ff321c	0.31348547991072606
36	0x3f92d1b428ad57f0	0.018378081305250704
37	0x3fe3e1413bd6dbdc	0.6212469261871507
38	0xbfed91c251061a98	-0.9240428526398601
39	0xbf945059fa21e61b	-0.019837766544219187
40	0xbfee1bc2a0467802	-0.9408887033821431
41	0xbfeff4283f6ba728	-0.9985543478662509
42	0xbfefe34c6e7a2d5d	-0.996496406341446
43	0x3fe3df25f6dd1c66	0.620989782481854
44	0xbfe5dcd1f9666550	-0.6832055922597338
45	0xbfd0b233b1a86daa	-0.26087658261686875
46	0xbfe25beff582ca4e	-0.5737228198179964
47	0xbfa844882caa8095	-0.047397857143779344
48	0x3fe6deb22f0ddd94	0.7146845740343672
49	0xbfd56acf6f51245b	-0.33464418288037273
50	0x3fd9083ae095c5c9	0.39112731868871414
51	0x3fdf085b8962b327	0.4848851052909588
52	0xbfe389de6c65fe13	-0.6105796925693902
53	0x3fdc7cf4d0798609	0.4451267276654965
54	0x3fe05d7f0fa30213	0.5114131265073091
55	0xbfe1a70f5c7ef861	-0.5516430670320568
56	0xbfe36bc05050e6cb	-0.6069032257721231
57	0x3fe9160e93f393b8	0.7839424981763079
58	0xbfe10aa639149aac	-0.5325499644139504
59	0xbfb9522ffb17507e	-0.09891033058312534
60	0x3fe5d7d73440f1ff	0.6825977345066007
61	0xbfc0a2647e4c002b	-0.12995582739677167
62	0xbfc0f28226ade91f	-0.1324007691253621
63	0x3fc7b8d32eacfcfb	0.18532790927017814
64	0xbff0000000000000	-1.0
65	0x3fe936e2cb187411	0.787949940367641
66	0xbfd29a446a16636d	-0.2906657253275203
67	0xbfe2931fa6b7dc9b	-0.5804594284262693
68	0xbfeedbef1bb649fb	-0.9643474141360565
69	0x3fc2bc969757b108	0.14638025655529696
70	0xbfd7d5d37c0de29c	-0.3724259101359537
71	0xbfd5ac83203aacdf	-0.3386543097246441
72	0xbfde5b29678124bf	-0.4743140707765398
73	0x3fe3820e4757fed7	0.6096259492332717
74	0xbfdc5d59474a4e02	-0.4431975551790118
75	0x3fec83084753c3a8	0.8909951584920366
76	0x3f96ae0d2629881c	0.022148328260648595
77	0x3fd8b15855e9205c	0.3858242835017387
78	0xbfc7651a28d4feec	-0.1827728938460419
79	0xbfe5acbc7e41ce9e	-0.6773359743078406
80	0xbfecbd14717fdb45	-0.8980810372148446
81	0x3faf388b37f424dc	0.06097827013042842
82	0xbfc9b0b1610e402a	-0.20070473898931712
83	0xbfdd5040dbb8b5ed	-0.45802327592067976
84	0xbfefffcd6493ebee	-0.9999758686457179
85	0x3f960ce0b2e710a7	0.021533499640796674
86	0xbfebbee89282aff0	-0.8670542584927698
87	0x3fa4ea384bad0912	0.04084945606020275
88	0x3ff0000000000000	1.0
89	0x3fefe73802cf0ca7	0.9969749503001325
90	0xbfef111d4764b0b7	-0.9708391565705118
91	0xbfecd4454181f242	-0.9009119300313346
92	0xbfeff1ea8694d2c3	-0.9982807758848015
93	0x3fe069f5f42e545a	0.5129346627387676
94	0x3feffaf781caa6fd	0.99938559865879
95	0xbfdddd56ae8192c6	-0.46663443605056576
96	0x3fc6c9cba3dcb76c	0.1780333089931746
97	0xbfa35690f5eb1cfa	-0.037769823092782276
98	0x3fefb5bf8ef5f2dc	0.9909360687448401
99	0x3fc708bc4d39d7cd	0.17995408793257042
100	0x3fdd3e77b3b45a6a	0.456937718861275
101	0x3fe28bb9fade37fb	0.5795564555899085
102	0xbfeffc04d9de91ab	-0.9995140319120329
103	0xbfeff31008c086fc	-0.9984207316340128
104	0x3fe85d32183a00d9	0.7613764260459234
105	0x3fdf60bb4556048b	0.4902790238484804
106	0x3feff51e2af84a2b	0.9986716117148878
107	0x3fe7ff73733f43b2	0.7499329806251949
108	0xbf9e4130dcb3bb0d	-0.029545558424554353
109	0xbfc2038243e91a56	-0.1407320815653345
110	0x3fd99b21afa7de16	0.4000934806240094
111	0x3fee1b888c515eab	0.9408610096533797
112	0xbfc1881be6882452	-0.13696621662555458
113	0x3fe133d4e338190d	0.5375770986436536
114	0xbfe509b3d1d82a2b	-0.6574343775294599
115	0xbfe553fec8ea76d5	-0.6665033268106649
116	0x3fe5d4912e636c32	0.6821981340430112
117	0x3feff134a1c2110a	0.9981940421426156
118	0xbfdb5b356670e62e	-0.42744193080906967
119	0x3fc8c0a7de1f02f8	0.19337938638457053
120	0x3fc0efa24cf61a3f	0.13231304891469794
121	0x3fec6c2c000556cb	0.8882045746238075
122	0xbfe1c48934ba51ac	-0.555241206153871
123	0x3fe4d238009e3b76	0.6506614696571507
124	0x3fea6944dc6e180b	0.8253502183222293
125	0x3feffffffd03309e	0.9999999944352742
126	0x3fe47bfa8e38db5b	0.6401341226363501
127	0xbfe3111ae21e4f21	-0.5958380142569447
128	0x3fefe8f678329afb	0.9971878383265386
129	0xbfe3049f4732ceb5	-0.5943142309756327
130	0xbfb3837aaf97db0d	-0.07622496401732466
131	0xbfc7f26adc126f5e	-0.1870854925699587
132	0x3fefffffffffffb7	0.9999999999999919
133	0xbfeffa75be1d3d22	-0.9993237221878284
134	0xbfe0873b60b3debb	-0.5165078057024951
135	0xbfeb6b60d68b9b40	-0.85685769942652
136	0xbfbd3fd5b24c6c61	-0.11425529101363587
137	0xbfce7426abe1c181	-0.2379196490542306
138	0x3fe74f4b1ecb1d47	0.7284293748315712
139	0xbfb303a3c76928aa	-0.07427428835322539
140	0xbfdab0e6cb2f19a4	-0.4170472130030254
141	0xbff0000000000000	-1.0
142	0xbfe759a3f02f7648	-0.7296924296494547
143	0xbfc7b90ac78b5609	-0.18533453696606753
144	0xbfe755b9ea503e1e	-0.7292146278795746
145	0x3fe24e8ec80148e6	0.5720895677898425
146	0x3feffc1702970c4a	0.9995226908289478
147	0x3fd2b859df2feea1	0.2925018958628503
148	0x3fe2f496c779a907	0.5923570533753101
149	0x3fee75d04df70901	0.9518815539125002
150	0xbfe843085bc47d4f	-0.7581826965651234
151	0x3fd4fb56366c62ef	0.3278403789022794
152	0xbfcede8a2dff610b	-0.24116637464499777
153	0x3fecbd02ad10d56a	0.8980725650969081
154	0xbfcd0ac5e9a94af2	-0.22689126881831317
155	0xbfa0125a8e8e4c2f	-0.031390027906262545
156	0x3fd1e4ac2fbc21cb	0.2795820680771867
157	0x3fe6bbbd631a95a2	0.7104174552556979
158	0xbfd718d64f5d308a	-0.36089093923943294
159	0x3ff0000000000000	1.0
160	0xbfb3e74ca20d02b7	-0.07774809795683778
161	0xbfe26d77f1fe3f9d	-0.5758628584317084
162	0xbfefe130b0b546cb	-0.9962390376406004
163	0xbfc957d45c5a7f44	-0.19799284467171152
164	0x3feb550fcea8e881	0.8541335140537428
165	0x3fe2cb95b833dc08	0.5873516652781072
166	0xbfa0cd274ebce35f	-0.03281519733577087
167	0xbfb2d41c0dcc015d	-0.07354903542364384
168	0xbfd742be4394325c	-0.3634486827802783
169	0xbfd374cd524203f7	-0.3040040305423299
170	0x3fe3d02b5cd0af51	0.6191613018795384
171	0x3fefe89faed2f07f	0.9971464552431967
172	0xbfc273d5fc7e0764	-0.1441600306389389
173	0x3fed261441bd6858	0.9108983310682204
174	0x3fe7a37b0103d4bc	0.7387061137984783
175	0x3fe9d4557241382f	0.8071696502245284
176	0x3fd4d7d9cb273dee	0.32567448462665893
177	0x3fefd95e025af423	0.9952840848924364
178	0xbfed7d0617fcf092	-0.9215116947666664
179	0x3fd74a4bc284fc6f	0.3639096641163126
180	0xbfe025b803cba57f	-0.5046043466692679
181	0xbfe46302fdcf7477	-0.6370863873704725
182	0x3feecd3f26b674e5	0.9625545269115291
183	0x3ff0000000000000	1.0
184	0xbfd47ad4728594fa	-0.3199969404580113
185	0x3fe152f913aac153	0.5413785347100578
186	0x3febc5b3a1b7677c	0.8678835066341288
187	0x3feb857e50cf6555	0.8600455835650488
188	0xbfeebbfb49d673cb	-0.9604469720976508
189	0xbfde8cde5e88fc27	-0.477347938842231
190	0x3fe94240dd9dbfe8	0.7893375709954826
191	0x3fc72aab6266b4e2	0.1809896688913915
192	0x3fd8bde1efbd45c8	0.38658951198621283
193	0xbfe09011189c3bf3	-0.5175862770719263
194	0x3fefdb925f57b905	0.9955531942521537
195	0xbfc63f16c08c5c93	-0.17380031968852858
196	0x3fcd1f2ed5c7f7cd	0.22751412809878815
197	0xbfc441e75046f220	-0.15826121730596387
198	0x3fb6eb68f09b2a18	0.08952957033321984
199	0x3fefffffffffffff	0.9999999999999999
200	0xbfd0ae6de9814e5f	-0.26064632228119494
201	0xbfb89bb8553baa65	-0.09612609940419643
202	0xbfa9d96a6622e5bc	-0.05048687454968667
203	0x3fd1dfc0c57d2378	0.2792818001367361
204	0x3fdb029ae121e3e0	0.42203399644455253
205	0xbfefef40392e46a7	-0.9979554287731006
206	0xbfd31eacce28c68b	-0.29874725468389646
207	0xbfe13775a77fad51	-0.5380199691257223
208	0x3fd36288dd21a776	0.30288907618397987
209	0xbf418bc80fd72594	-0.0005354620804435711
210	0xbfefee2db3ccb419	-0.9978245269500149
211	0xbfc112c55b0234ef	-0.13338534301548274
212	0x3fcdbcd0f833fab9	0.23232471579827577
213	0xbfdad5161c61899d	-0.41925575992186187
214	0x3fe98869fccc0cbf	0.7979021012728466
215	0x3fefffdaa83b4843	0.9999821935437087
216	0x3fe989c60941a856	0.7980680638113522
217	0xbfbd036f448c5c7e	-0.1133336584428992
218	0x3fd0c3de2f8bc9f6	0.26195482867402065
219	0xbfebd3fc7fb05f3f	-0.8696272367405767
220	0xbfd7fa6ba49c0900	-0.3746594531550187
221	0x3fdeb4172f613eb2	0.47974185587825524
222	0xbfe605f89c9ca8bc	-0.6882288988902228
223	0x3fe2d52fb53b59ed	0.5885237254795449
224	0xbf94136dd57d211d	-0.0196053659012999
225	0xbfd1fa6118797192	-0.280906938458224
226	0xbfe46c009490f09c	-0.6381838704760585
227	0xbfb7a0361f06f426	-0.09228838212489218
228	0x3fefe8de3de9edea	0.9971762856725352
229	0xbfd9544eab2018e5	-0.3957707091470993
230	0x3fe2f3d48a829b65	0.5922644334103607
231	0xbfdb7823520f2aaf	-0.4292076398238959
232	0x3fc8556a332c40a7	0.19010665415453795
233	0x3feb2d2d984b323d	0.8492649054038065
234	0x3feb077d3f597491	0.844664214829793
235	0x3fe31f20a30a7d28	0.5975497421640386
236	0x3fe95dd1cb4b76d0	0.7927025766946034
237	0x3fe0ad26dbbf0881	0.521136693183749
238	0x3fd2ad8e297740ec	0.29184297608755005
239	0x3fde69fb6be571f8	0.4752186349558367
240	0xbff0000000000000	-1.0
241	0x3fe7a417419dd7be	0.7387806207250305
242	0x3fefe22409698ad8	0.9963550742944234
243	0x3fd37452c9fd8ad3	0.3039748165667053
244	0xbfeb561804ceced2	-0.8542594999221029
245	0x3fe3bae64f30335d	0.6165648981710593
246	0x3fc7e597cfe99008	0.18669412281008158
247	0x3fd12bb023b2f314	0.26829150663597656
248	0xbfda8234d6bfeaaf	-0.41419716807983326
249	0x3feffaf5fff6bc5c	0.9993848799985119
250	0xbfe906d16670d701	-0.7820822716518877
251	0xbfdc3fbba15cc19d	-0.44138994939842197
252	0xbfe7a21c87f39280	-0.7385389952947463
253	0xbfbde66783bb9d4a	-0.1167969414342355
254	0x3fe8e7a2b7f387af	0.7782758324431053
255	0xbfe2278c99934d83	-0.567327785446125
