Example world4-1 fast accel/best_ind_gen2259/W2.npy (npy, 560 bytes, 1 tensors)

array f8 [6, 9]
00000000: e0eb baab ddff efbf c43f 1d78 94ef efbf
00000010: 6c5f a4af d587 de3f 00eb 3c49 e6dd ea3f
00000020: a83b 8eee 7060 ca3f b125 b3e0 aefb efbf
00000030: 9fa5 3195 3b9b d73f 58c1 a53a ac42 c4bf
00000040: 2c2a 9606 292f dbbf bf2b 5e7a 2d23 da3f
00000050: 0000 0000 0000 f0bf f017 363a 35da d6bf
00000060: 219b 67ba c00f eb3f 5022 099f 198d d33f
00000070: 0274 f7c3 4316 acbf 06a2 2de4 04d5 cf3f
00000080: 0911 1672 d7cb b53f e238 6a4f c6fc e9bf
00000090: f713 7a7a 2a7e 9ebf 5d51 c74c 49dc d0bf
000000a0: 322d ea0a 20b7 babf 7933 feed 2820 ec3f
000000b0: 109c cfff 49f1 ef3f 9765 92ea c7b0 debf
000000c0: e8d4 5dd5 104b e8bf c3d9 ed6f 28c4 dbbf
000000d0: fb0c 7a30 b889 df3f b33a bd2c 4463 cf3f
000000e0: bb6e d705 a5fb e13f ebce ddee 5a06 e93f
000000f0: 9665 5796 9f2f 7ebf bbc2 0bee 2e32 e43f
00000100: d010 92f8 5b94 a1bf 9b13 5b66 35d2 adbf
00000110: 3ca9 8ec8 3efe ef3f 75bd 6b79 a8a1 efbf
00000120: ce12 6637 ccfa e63f 13c0 a22d 9142 ec3f
00000130: 3037 0adb 9bf5 a6bf 4dc2 08aa bb8a dd3f
00000140: 9caa b556 75c9 efbf 6343 05a3 9aaa ddbf
00000150: 67d5 473d aecf efbf 57ec 72e8 2fed ef3f
00000160: 5295 2dcd 11c8 e6bf 218c 76b0 ada1 e0bf
00000170: fb63 be97 1c2e cc3f 1152 2fe4 f5ff ef3f
00000180: 61d7 1801 7b08 d23f 3983 8e14 79f0 efbf
00000190: 1c97 2d89 b5d6 e73f 67cf 0ae8 3650 d23f
000001a0: b0ff 3592 7378 e93f ec7a a1c9 112b e63f
-0.9999836305718155 -0.9979956003171471 0.47704069283053374 0.8395873480252192 0.20606815002653645 -0.9994730366390084 0.3688496548625952 -0.15828469146391444
-0.42475343363972473 0.40839707326875535 -1.0 -0.35706835446069274 0.8456729546277054 0.3054870656092463 -0.0548573662488039 0.24868832723156248
0.08514162574107699 -0.8121062804291592 -0.029778159833330844 -0.2634452104369041 -0.10435676828835908 0.8789257667827847 0.9982042309101207 -0.47953985125931226
-0.7591633002581633 -0.4338475316102654 0.49278073057230615 0.24521686729936717 0.5619683374493073 0.7820257821426514 -0.0073696359517837675 0.631125893529393
-0.03433501633938507 -0.05824438929042871 0.9997857968458344 -0.9884836551190533 0.7181149560934388 0.8831258670161354 -0.04484259651972733 0.4615925941934947
-0.9933420842692899 -0.4635378448484088 -0.9941016384970397 0.9977035083787865 -0.7119225509056071 -0.5197361418289611 0.2201572171150302 0.9999951798186563
0.2817676077569243 -0.9981046105859611 0.7449596099147331 0.28614590320943595 0.795953546112278 0.6927575052357873
