Example world1-1/best_ind_gen1213/W1.npy (npy, 5888 bytes, 1 tensors)

array f8 [9, 80]
0	0xbfe40864ba1f260e	-0.6260245928944543
1	0x3fd83ccacf82e34c	0.3787104631879188
2	0x3fac35d9924e4480	0.05509834204634334
3	0xbfe0f19a29959754	-0.5294924556917331
4	0x3fe6826ebad4190c	0.703421940707615
5	0x3fa4ce285b3725cc	0.04063535798520554
6	0x3fe9f77b15b49fa0	0.8114600585877163
7	0xbfe5c75b0ac62f14	-0.6805854044373256
8	0x3fe0e7041ea3d90d	0.5282002066076373
9	0x3feffffd61d84cc8	0.999998751738894
10	0xbfca8f195b3a2606	-0.20749203638506247
11	0x3fed192c4a3d56e8	0.9093228769295054
12	0xbfdcaf206090c328	-0.4481888716718907
13	0xbfda95836a3d7086	-0.415375570058821
14	0x3fd069d69e7bcc1c	0.2564598605815165
15	0xbfd49f030a846bb5	-0.32220531489445686
16	0xbfdb480ffc1708a9	-0.4262733423057719
17	0xbfe46a77e93366f8	-0.6379966311171463
18	0xbfd9a88b46acbd9b	-0.40091211225350215
19	0x3fe7a7e4b09525a7	0.7392447899703044
20	0xbfc91ff70b4bb254	-0.1962879948763595
21	0xbfe529f16bd18bdc	-0.6613700013953081
22	0x3feef5e8d5252280	0.9675182497968109
23	0xbfc2ed4c78f302b4	-0.14786678224301897
24	0x3feff55b19480b4f	0.9987006658342156
25	0x3fcd2831f94c39ee	0.22778916046850334
26	0xbfe275dddba73f6e	-0.5768880167106383
27	0xbfc6dca02abeb6db	-0.17860796057850944
28	0xbfdcd53794b2b175	-0.4505137397889237
29	0xbfee3957941a3c2c	-0.9444997685076308
30	0x3fdd49a14af8ca40	0.45761902162044876
31	0x3fc3dd858d9a96f4	0.15519780554057372
32	0xbfeb9b22d3c48fbc	-0.8626875053491783
33	0x3fda11b18928bd26	0.4073299254841508
34	0x3fd5883b84c0ec8a	0.3364399715826002
35	0xbfd8a76661e2f096	-0.38521728095271024
36	0xbfe331aac2fc8da2	-0.5998128708201202
37	0x3fe859a8356d7217	0.760944465971593
38	0xbfdc2dbaca78e9bc	-0.440291116454002
39	0x3fe1b18e8bbe2a89	0.5529244164802815
40	0xbfd79a3df0f16056	-0.368789181991365
41	0x3f7c11efb48eff39	0.006853042935233416
42	0xbf9331b73c000c25	-0.01874433807098454
43	0x3fd98cfcb69a36b8	0.3992301734186685
44	0xbfb7514a1682f87b	-0.09108412789916713
45	0xbfd0696399d31e3e	-0.25643243810597827
46	0x3fa1be492fe946a6	0.03465489110807356
47	0x3f8091f7561ea7b6	0.008090908351579756
48	0xbfe72bb24cbc220a	-0.724084043381539
49	0xbfeffffd32de916b	-0.9999986642401785
50	0xbface7f4dbaa41e8	-0.05645718747576095
51	0x3fd189fcaa3a5839	0.27404705642527777
52	0xbfefc2300b61c1b6	-0.9924545500089639
53	0x3fe34fdeb6ef7429	0.6034997532802936
54	0x3fd2479891739a69	0.2856198711801086
55	0xbfc03ef94df2211b	-0.12692180925319793
56	0x3fc18089289905a4	0.1367351005774654
57	0xbfb1822617d1acb4	-0.06839216310042923
58	0xbfd17f6e31569854	-0.2734027368372882
59	0xbfc5751985de1803	-0.16763609920980124
60	0xbfbc4ca3f99dd863	-0.11054444164423809
61	0xbfefffedeee7339d	-0.9999913850857528
62	0x3fdbf6719ed5f4fe	0.4369167376642763
63	0x3fc13271a4c43341	0.13435192628130646
64	0x3fe28de56a2a4d05	0.5798213075198936
65	0x3feffff263ab2c99	0.9999935099271112
66	0x3fe429df8cb3d5cf	0.6301114795775734
67	0xbfe04be0b093f56d	-0.509262413863025
68	0xbfd96019da216836	-0.39649053861433303
69	0x3fe3deca094a7276	0.6209459477864374
70	0x3fe386bc27557a2d	0.6101971405258318
71	0xbfd99487dc82ba60	-0.3996905949997309
72	0xbfe3a4eff79546f1	-0.6138839564902964
73	0x3fdd87bdc7ab4301	0.4614099931614391
74	0x3fcfd65d9905c952	0.2487294194393806
75	0xbff0000000000000	-1.0
76	0xbfebc12b9c03458c	-0.8673303649067505
77	0xbfd63a62077f1e2a	-0.34731341106496194
78	0x3fd04f34fb0f985b	0.2548344089285643
79	0xbfc85d7a9471735d	-0.19035274742318622
80	0x3fea22b721f8e682	0.81673771510323
81	0xbfbe50748eee3fdd	-0.11841515054243197
82	0xbfe692d70721dc6b	-0.705424798898901
83	0x3fd7f95cd6974646	0.37459488826889176
84	0x3fe4b34ebd2ece39	0.6468881316163283
85	0x3fe61e5f08022079	0.6912074238216653
86	0xbfe51f1d8bc5d425	-0.6600482683121568
87	0x3fec62e8b9a579e8	0.8870738626390535
88	0x3fd72f6cb9da3a72	0.3622695746388792
89	0x3fd600323e8f5ba7	0.34376197919248813
90	0xbfefffcf395211c9	-0.9999767417471556
91	0x3fbd10b3b7821a64	0.11353610258275065
92	0x3fc73514ad9d1fac	0.1813073966716251
93	0x3feff764d308ce94	0.9989494439855258
94	0xbfd332cae81ef128	-0.2999751345448822
95	0xbfdac638b733713e	-0.41834848299710703
96	0xbfd7372ca9f4fb71	-0.3627425822959856
97	0x3fa8d4e1376717c1	0.048499143612886104
98	0xbfc7189a86416fae	-0.18043834262323116
99	0x3febd009cee359ca	0.8691453018935189
100	0xbfc8e2bf8554a2c9	-0.19441980371745718
101	0x3fbaed31ea11cd4e	0.10518180813396791
102	0x3fefff28f4866916	0.9998974586372096
103	0x3fe8c4f2914cb67d	0.7740414464839912
104	0x3fefec128b667b08	0.9975674364721678
105	0x3fefffff30e3bc61	0.9999996142268054
106	0xbfe9cd38995982c8	-0.8063014025793445
107	0x3fec1d6a6a63416a	0.8785907819638343
108	0x3feff38fb73f22f0	0.9984816149745637
109	0xbfd97d8da6d48f2c	-0.3982881669237368
110	0x3fd862e3f5917020	0.38103579503308715
111	0x3fdfb33b2aaaf810	0.4953143994024467
112	0xbfeaaa29eb6afe65	-0.8332719419485782
113	0x3fe882d671149f68	0.7659713944058071
114	0x3fc4e5343ec1ac2b	0.16324475349696974
115	0xbfeffffffcbcf685	-0.9999999939243059
116	0xbfeed6baa8c2fd84	-0.963712052929552
117	0x3f9bfd234d614371	0.027332831952949947
118	0xbfefff97f0377774	-0.9999503795367972
119	0x3fc5ed21226d0815	0.17129911595299122
120	0x3fe87c1a14b3b229	0.7651491550764763
121	0x3fd438f4124746f4	0.3159761599064119
122	0xbfcb515c54095bf0	-0.21342043021533597
123	0xbfd10c942fb4d347	-0.26639275225470666
124	0x3fd75a7375119b1b	0.36489569122788773
125	0x3fd1c68e4190b973	0.2777438774382041
126	0x3feffffa640f59e4	0.9999973253532599
127	0xbfe9f19ff62ecfdb	-0.8107452209719627
128	0x3ff0000000000000	1.0
129	0x3fcdfb8bc2e985b6	0.2342390729636869
130	0xbfd4453570f71222	-0.3167241671729092
131	0x3fc238b4ca5dfc39	0.14235553628165734
132	0x3febf9117a4f02ae	0.8741538418617745
133	0xbfef18db30df4bd8	-0.9717842058693078
134	0xbfe1e1e79b580a32	-0.5588262590466171
135	0xbfefecce8c679f6e	-0.9976570837288656
136	0x3fe9e691e5991420	0.8093957409224721
137	0xbff0000000000000	-1.0
138	0x3feaeea2713b2c66	0.8416301929040741
139	0xbfe680485a09ec83	-0.7031594999856597
140	0xbf620b63d8b4d63c	-0.0022026968123565454
141	0x3fe0eb5f1eb73cd8	0.5287318801801133
142	0x3fc89f4e2810e6db	0.1923616119036556
143	0x3feed935ce08dae7	0.9640149139512147
144	0xbfe274f902a8df1f	-0.5767788936563852
145	0xbfd5cfdee3f4ad6d	-0.34081241856866634
146	0x3fdd1edc451110e3	0.4550085710982456
147	0x3fe2151c7c6695c3	0.5650770597173324
148	0x3feffd5703c63d34	0.9996752809255782
149	0xbfd2ce155682f0b2	-0.2938283295477603
150	0xbfeffffffff81c85	-0.9999999999426029
151	0xbfb974f076ad26b8	-0.09944060227749218
152	0xbfde972b0cb4d4d0	-0.4779765724263827
153	0x3fe6df2aa543f8e8	0.7147420146791577
154	0xbf9e4c0a95ece9e3	-0.029586949730608835
155	0x3fdbdff988be26a4	0.4355453334215815
156	0xbfc8da8f344a6d33	-0.19416990330942382
157	0x3fb2bba2d9d954f5	0.07317560022905296
158	0xbfdaa28d559e2693	-0.416171392069921
159	0x3fe104437fd97e9a	0.5317704674780146
160	0xbfcd4a4dfc836c3f	-0.22883009748224656
161	0x3fda5b686d9a155d	0.4118290968256895
162	0x3fd6ec692970594c	0.35817936941875383
163	0x3fea416a27adaea7	0.8204851889581349
164	0xbfb29bac06c9154b	-0.07268786588345681
165	0x3ff0000000000000	1.0
166	0xbfeffffffae271cc	-0.9999999904717298
167	0xbfe42f3cdf025803	-0.6307663303039138
168	0x3fed4a69254750a4	0.9153333404633668
169	0x3fef158d5cb0f2e4	0.9713808832526323
170	0x3ff0000000000000	1.0
171	0x3fdc1e54d895583d	0.43935128355713343
172	0xbfe2d1bc233ba070	-0.5881024063246638
173	0x3feff33119c24022	0.9984364989377392
174	0x3feffe56301dcb82	0.9997969569943594
175	0x3fe86f0bd1f21da2	0.7635554409507004
176	0x3fd4565e74986e36	0.3177715433718932
177	0x3fd279d3ce2b9823	0.2886857522374859
178	0xbfc7fb6acbf0c088	-0.18736014326123418
179	0xbfe568f8c082c430	-0.6690639266945535
180	0xbfc77cfccf8b89a8	-0.1835018170741709
181	0x3fdf952aa7cbdb86	0.49347940813407154
182	0x3fe450a6e6472818	0.6348452088943786
183	0x3ff0000000000000	1.0
184	0xbfeffd0f281cff96	-0.99964101633667
185	0x3fec4d0c5ac4ff5a	0.8844053051798071
186	0x3fd8fcd332784935	0.39043121269891695
187	0xbfe71ba9bee1f5f5	-0.7221268394638957
188	0xbfefe3362cc9f076	-0.9964857935697313
189	0x3fefe8824a0c718c	0.9971324392568461
190	0xbf98ac57c80a1c86	-0.024094935974542618
191	0xbfd36eda73a7768d	-0.3036409501490674
192	0xbfed678088c7ea43	-0.918884532118064
193	0xbfdf9e92dda4655e	-0.49405357022040686
194	0xbfeda3795b9ee2a4	-0.926205328890394
195	0x3fad940b819b6025	0.05777011830440441
196	0x3fd3031929bbdb45	0.29706410480087114
197	0xbfd08e856a4cf232	-0.2586988008586416
198	0x3fc0d329e3c73dd4	0.131444202632777
199	0x3fe074038725fa33	0.5141618384948913
200	0xbfe82f6e26c8961d	-0.755789829014876
201	0x3fba02e5582d60f0	0.10160668757214686
202	0xbfede9c6d81d606e	-0.9347871991149199
203	0x3fea6865f3622731	0.8252439263899075
204	0x3fefe33a32a6e912	0.9964877118393665
205	0xbf67b91ecbb4e9d2	-0.0028958894232833177
206	0xbfc63d345f936674	-0.17374281565462335
207	0xbfdc26630418874d	-0.4398429431913556
208	0x3fe4b8d43a858606	0.6475621359824693
209	0xbfef566bc36e7416	-0.9792994324703865
210	0x3fefbe819a2b9b2a	0.9920051585330374
211	0x3fa9455f35f4ad2a	0.04935739072456109
212	0xbfea71c7cfba4214	-0.8263892228297345
213	0xbfe0d63deefbdab8	-0.5261525790836776
214	0x3fede6779a2bcc62	0.9343832026628542
215	0x3fc6441b1fac6aad	0.17395342871244193
216	0x3fdec849f466e8e5	0.4809746634233661
217	0xbf49b40011156d7c	-0.0007843971563192133
218	0xbfd827fff0f1d8f0	-0.37744139222867457
219	0x3fc01649a31797bd	0.12568016494259196
220	0xbfefffffffb8bf7b	-0.9999999994815733
221	0x3fefffa13a969680	0.9999548095990605
222	0xbf795635653beb05	-0.006185730529746141
223	0xbfe009a8fb9558cb	-0.5011792100656519
224	0x3fc63e43fe99e5a2	0.1737751954240539
225	0x3fe623eff364f73c	0.6918868783757044
226	0x3feffffff5ef6ed6	0.9999999812530074
227	0x3fb9a85b4334af39	0.10022516623274393
228	0xbfd2735025ffad14	-0.28828815184415757
229	0xbfd697a0e5d525ed	-0.3530046696147043
230	0x3fd949f16620ddcb	0.3951381203982833
231	0xbfd5faad618e66e9	-0.34342512633302974
232	0x3fefff57e52df897	0.9999198414004863
233	0xbfe68902e8cc2f66	-0.7042250201061335
234	0xbfef35df3bdbb72e	-0.9753261727434841
235	0x3fe0f3cf847969ae	0.5297620379818022
236	0x3feff736b4b73390	0.9989274530031356
237	0xbfd1a9e972b214b4	-0.2759955997538086
238	0x3fd7bc04fd4261e9	0.37085079891542577
239	0xbfd2f691d2b1daac	-0.29629941535624016
240	0x3fe7957bb599bcca	0.7369974657903182
241	0x3fd7984fe3d4dfb9	0.36867139100240426
242	0xbfeb935576743611	-0.8617350877336226
243	0xbfd7fa3fb073be83	-0.37464897376683143
244	0xbfd60ec3daffa84a	-0.3446511877688222
245	0x3fe33e482f08fb65	0.6013527792600654
246	0x3fe42e858d32224a	0.6306789167147795
247	0xbfa77c63d2a12a53	-0.04587089487229847
248	0xbfe800fbff2fdf05	-0.7501201614495306
249	0x3fe6b8d852cebd48	0.7100640885673011
250	0xbfeffa5949e05bbd	-0.9993101542375978
251	0xbfed65e34b1de2a5	-0.9186874835132427
252	0xbfec5a65c5facdff	-0.8860348574439171
253	0xbfeff8bca64ce451	-0.9991133926442989
254	0xbfefffa2e1efe076	-0.9999555981476209
255	0xbfc5af13ed69df2c	-0.16940545170268118
