Example world1-1/best_ind_gen1213/W2.npy (npy, 560 bytes, 1 tensors)

array f8 [6, 9]
000000 aa f7 55 90 42 91 ec bf c3 9d 1f 1c f1 d7 e3 3f
       -0.8927319354113383 0.6201100873267297
000010 38 06 a5 59 d8 3d e2 3f 8e af 6e f9 a0 36 ee 3f
       0.5700494528647999 0.9441685554242996
000020 6b a5 4b e5 13 e7 c2 bf 68 34 80 6f 03 fa e5 3f
       -0.14767693229741083 0.6867692163228982
000030 c0 ce c8 ff d2 fd dd 3f c1 4a 3b 47 f4 49 c1 bf
       0.4686172006506517 -0.13506940343957832
000040 b7 10 b8 ec 0e 07 e4 3f 66 b5 95 27 e4 ff ef 3f
       0.6258616088312213 0.9999867222920045
000050 c4 93 44 4e ff ff ef bf ff 6e 6f 44 66 52 d7 3f
       -0.9999996689481283 0.36440426524289643
000060 a0 2a b8 1d a2 91 e6 3f 10 19 06 9c a1 10 d1 3f
       0.7052774982888259 0.266640093199741
000070 48 19 85 dd c3 b8 88 bf 6c 72 51 e1 05 bf c7 3f
       -0.012071161458732008 0.18551705839026356
000080 f8 26 f8 c8 97 89 ea bf 99 66 a2 04 c5 c1 ef bf
       -0.8292960095579636 -0.9924035158648677
000090 3f c2 8a ec e7 4a d4 bf 0b 3a f7 09 74 7b da bf
       -0.31707189655120155 -0.41378499005523456
0000a0 86 87 62 94 2b c1 de bf 83 e0 e5 7e 20 e4 9d 3f
       -0.48054017534934024 0.029190547700153956
0000b0 cc 90 29 33 87 da ea 3f d7 7c 30 5d 8d 6c ec bf
       0.8391757964386897 -0.8882510013680996
0000c0 a4 da f5 f5 56 85 e9 bf e4 0d be 60 81 c5 b5 3f
       -0.7975268176949908 0.08504494296908366
0000d0 76 7b 07 b7 b8 e9 ef 3f 3b 14 b9 04 f6 74 e9 3f
       0.9972804617681124 0.7955274669881257
0000e0 92 db 8c 94 94 b0 ef 3f 0f 9a 94 6a fd a9 e2 3f
       0.9903052235957708 0.5832507211351315
0000f0 1a 1d 04 09 e3 ac ee 3f cf a7 0b ef 35 7d d0 3f
       0.9586043525786494 0.2576422533444402
000100 5d e5 aa 50 3d c2 e3 bf f8 0b 3c be dd 89 e4 3f
       -0.617460877946694 0.6418293681639389
000110 9c d8 c4 2b 63 93 d7 bf bc 77 27 06 2d 5a dc 3f
       -0.3683708121710738 0.4430038986300777
000120 75 89 87 bc 94 e5 db bf ff 66 ec 7b 87 f8 ef 3f
       -0.4358875123126816 0.9990880413417641
000130 28 5c ee 10 7d 4a a8 bf 0f 15 a4 9d 4b 60 eb bf
       -0.04744330245664968 -0.8555048064160092
000140 b6 c3 d3 d1 fb 6d de 3f a6 e1 fd a2 8c 31 e4 bf
       0.47546287051141733 -0.6310485061103932
000150 d2 3c fb 55 51 65 df bf e2 13 3e bb 4d 6b d4 3f
       -0.49055894276257306 0.3190492943324995
000160 a9 b4 ec 32 c7 ae 9f 3f 2b 8b 59 17 11 ff e1 bf
       0.030940163119500017 -0.5623860794115435
000170 7c a2 70 80 8c 0e e4 bf c4 56 6e 83 5e 4e e5 3f
       -0.6267759808152529 0.665816551877207
000180 00 00 00 00 00 00 f0 3f de 33 df 6d 06 f5 ef bf
       1.0 -0.9986602922377832
000190 5c 7a 4d dc 5c 80 e9 3f 24 f1 50 19 91 9e dd 3f
       0.7969192793642139 0.4628031489589992
0001a0 14 8f 17 f5 0f 8a e6 3f 3c 11 12 45 e9 70 df bf
       0.7043533122018482 -0.49126655335591685
