Example world2-1 walljump/best_ind_gen11771/W1.npy (npy, 5888 bytes, 1 tensors)

array f8 [9, 80]
-0.9999999990780001 -1.0 0.647614406715079 -0.6937395517406735 0.23106436277789733 -0.5297175713710506 0.20552544864599642 -0.4927448121928104
-0.5546416725640287 -0.31119869404535383 -0.5745516672476411 0.3782039506609471 0.32713347035579887 0.12358819474859278 1.0 -0.3627420337170045
0.1855490504299602 -0.9992214357185094 -0.8251164099492705 -0.41479413407580007 0.999940026307235 -0.1749054679424136 -0.9999999999999999 0.3997575279779207
-0.11725806384728085 -0.9998673072789748 0.16492159959950256 0.1581873622141557 -0.6780112842684288 0.44445905837432664 -0.25490921717255105 0.40915684981406086
-0.48512694901306846 0.0925728670011649 0.2548876421235023 -0.16981081604933346 0.39142578842148135 0.3037003418940495 0.895674404284828 0.44827372624531536
0.9999999999999993 0.4471228184095956 -1.0 -0.8242181114003192 0.5483376333040891 0.9999986293451405 0.9197934287492511 0.06190003232956187
0.887314691646715 0.9333892291187502 0.144316364526289 -0.9585436118490394 0.4394090368785847 0.9999999616409102 -0.9999451486711838 -0.06078307596797606
-0.057693673537194186 -0.8352714721818258 0.1786599909653147 0.08980726422019489 -0.9998061770134727 -0.2092318516581597 -0.8616646418505721 -0.08064392231014332
1.0 -0.161372984291018 -0.5106966860070348 0.3771448203739814 0.861411262069355 0.9993861795598221 0.9993625431723646 -0.9999999997581578
0.6144160192859998 0.8209320123143031 0.6276477044639016 -0.858680223759873 -0.17747355644743135 -1.0 -0.9999995537404516 0.7857774332075219
-0.5968800193199276 0.605937337405984 -0.974401044477528 0.9510964320620076 1.0 0.430874226869951 0.2767878591611899 0.24293243428388658
-0.18171031713217392 0.33390956529119215 -0.5327885141110092 -0.8551714409695117 -0.03903520635722298 -0.07880793596367922 0.9578266422397992 -0.1091234147274233
0.8117611474545644 -0.4567282467043298 0.5873504864976518 0.29929462399199547 -0.4605311517230959 -0.5489363056870734 0.09605908932808697 0.9130323533922253
0.5128020826042182 0.6468056382879754 -0.9999999986472246 0.5037600361392559 -0.009686895719870348 0.39761376966209855 0.9989585447923091 0.3589978736720917
0.4661399834054584 0.49639787502195887 -0.30003270548202454 0.9229547334570463 0.09316995259966959 0.34071548501425636 0.5877482705600123 0.8504089979234509
0.40200109680560975 -0.281079313241929 0.8442095494953527 -0.9704199998302607 0.3212678067002131 0.7335884010926947 -0.9999999953986936 -0.9999999999999999
-0.9343289806315573 0.412539901424978 0.8907937203001397 -0.9808364441943914 0.9588940909149558 -0.1914356771194895 0.21840013912353698 0.6305418106360685
0.6975624818808553 0.8888573241273215 0.2619229258117439 0.7250556105837036 -0.05948810153408452 -0.058813479507362876 0.7480952518899274 -0.05973776328677525
0.10850589817402106 0.8572324200136766 -0.5999735511975242 -0.9903968829499976 -1.0 -0.999958231931892 -0.9996074237335951 -0.317120501419223
-0.9999999999999802 0.4590246430451355 -0.6881648806551283 0.32360727090593483 -0.8358136182704838 -0.9968752621822315 -0.30064619555284633 -0.6793809522435184
-0.4210444107905164 0.5956147115670642 -0.48060150123409395 -0.3164225828360955 0.43699803543310706 0.7123474823660485 -0.40635185405773167 0.24461482652429778
0.6001618874113427 0.6443535199652173 0.7381073288468317 -0.7695956714103963 -0.22528050387589793 0.4441925934917113 0.5645723273255011 -0.7754263099551673
-0.8207181362077614 0.1750168776157637 -0.5116151258919948 0.3296404598985607 -0.16311788949492975 0.7775771470755509 -0.8422243654602412 -0.8852574576283306
-0.16466186611298483 0.05138831988559336 0.11857431984906454 -0.7472333774951315 0.0877495754998818 -0.11898509521858004 0.5374203395650672 -0.82061327487588
-0.15040616575847304 0.2209115237512878 -0.5935068867416388 0.9459934944735352 0.5445385420299109 0.9999999999999996 0.8433988009003615 0.4200161556631788
-0.33842601552994833 0.33335137126303976 0.1496806437791147 0.7062182383875796 -0.03570482823932161 -0.6076800608777165 0.585375065889307 -0.9603553665084239
-0.5184381540270131 0.8016989119117488 0.8691746897767174 0.8601428653366404 0.7072162097041752 0.7397076894951414 0.3590541147257643 0.3554193348982578
1.0 -0.8653015995931272 0.6654659522791708 -1.0 -0.3918059374789847 -0.11635354360121998 -0.5533429173588091 0.06940614119754987
0.4960165862711777 0.7001382570384129 0.9975811430075403 0.3076556606753224 -0.3831297663853422 -0.33875191787057957 0.1001699155484783 -9.848531459824257e-05
0.9227326989962963 0.4625760685322521 0.9993852693512923 1.0 0.4192533823995347 0.9999999999893135 0.8546602724865388 0.7721688092381181
-0.9317993499269908 -0.7946721548500568 0.743800548132017 -0.9142219968542049 0.7572850208941911 -0.9999983953018831 -0.04830702640827969 -0.033849668616181244
1.0 -0.08145728379181479 -0.8992786041992133 -0.42304862207412813 0.9341409693550827 0.422391263559996 0.501547131918764 -0.4958206611409357
00000000: 0348 81ff ffff efbf 0000 0000 0000 f0bf
00000010: 854f 28d9 41b9 e43f 605f d549 1d33 e6bf
00000020: 9c79 b35c 8493 cd3f 77f7 a443 72f3 e0bf
00000030: 7c13 376c a84e ca3f f812 6989 2189 dfbf
00000040: e928 95e4 9fbf e1bf a2e4 5eed adea d3bf
00000050: cb1b 962d ba62 e2bf 0ba2 d357 7e34 d83f
00000060: a4ba 2639 c1ef d43f 2cec 9dd6 79a3 bf3f
00000070: 0000 0000 0000 f03f 75bd ec5c 2a37 d7bf
00000080: b144 b33f 12c0 c73f f6f0 7b3b 9ff9 efbf
00000090: 6000 8487 5a67 eabf a367 1bb2 fc8b dabf
000000a0: 376e de39 82ff ef3f a124 5a68 4d63 c6bf
000000b0: ffff ffff ffff efbf a9ad 3f99 a095 d93f
000000c0: fe95 6add 9f04 bebf f849 23b9 e9fe efbf
000000d0: 0f89 57a6 261c c53f cad6 acc5 7b3f c43f
000000e0: 3f0f 88b8 44b2 e5bf 6c3c 0868 0472 dc3f
000000f0: d71f cdbf 6e50 d0bf 8ab0 3836 a02f da3f
00000100: 43d7 1ae7 510c dfbf 8c57 44fc dab2 b73f
00000110: b5cc c441 1450 d03f d02f b85e 5cbc c5bf
00000120: a833 05c0 1e0d d93f 7603 0e8f d36f d33f
00000130: 5590 485e 5da9 ec3f c84c 7848 84b0 dc3f
00000140: faff ffff ffff ef3f f354 9706 a99d dc3f
00000150: 0000 0000 0000 f0bf 3787 27a9 fe5f eabf
00000160: 97a0 465d fb8b e13f 6ba1 2220 fdff ef3f
00000170: 3cb8 f1a0 f26e ed3f 9020 f46c 5cb1 af3f
00000180: 4041 bcc7 e164 ec3f 2c1e b016 53de ed3f
00000190: de81 f568 f578 c23f 8ecd 15a7 63ac eebf
000001a0: da76 bd14 471f dc3f 83f7 67eb ffff ef3f
000001b0: 5dc5 eaf7 8cff efbf 3190 dd96 f51e afbf
000001c0: d983 0e72 068a adbf d9af 093d 8bba eabf
000001d0: fc5b 26a1 54de c63f 16db c4de 9bfd b63f
000001e0: a892 1386 69fe efbf f79f 13fc 1bc8 cabf
000001f0: b1c4 1bba c192 ebbf 8b77 f180 14a5 b4bf
00000200: 0000 0000 0000 f03f ad71 feb4 dea7 c4bf
00000210: ea6c 9293 a057 e0bf bd2b 5707 2423 d83f
00000220: 90ce df59 ae90 eb3f 0d15 a9b9 f8fa ef3f
00000230: e9b9 f827 c7fa ef3f efc2 deff ffff efbf
00000240: 9819 9fc8 4ba9 e33f 0e24 2436 1345 ea3f
00000250: 2d9f 82a3 b015 e43f e4a8 d8f2 4e7a ebbf
00000260: 045b 6c18 74b7 c6bf 0000 0000 0000 f0bf
00000270: 008e 6a10 ffff efbf c9f4 31b7 1625 e93f
00000280: 91ad 5320 a419 e3bf 48b0 f2b2 d663 e33f
00000290: e203 6719 4b2e efbf 338e e1c8 616f ee3f
000002a0: 0000 0000 0000 f03f 5820 467e 7193 db3f
000002b0: 11bd c16c e4b6 d13f f987 31f6 6818 cf3f
000002c0: 49d8 b69e 4842 c7bf e5d2 af39 c65e d53f
000002d0: ab51 797f 9a0c e1bf eefd 6d7f 905d ebbf
000002e0: fbcd 642d 6cfc a3bf 7a17 a1c3 c12c b4bf
000002f0: aa09 f50e 84a6 ee3f bb6c 7b19 83ef bbbf
00000300: 9d62 8f83 f2f9 e93f ff49 b01c 093b ddbf
00000310: e081 593f 93cb e23f de82 7aa3 a427 d33f
00000320: 8027 dca6 5779 ddbf d16a 10df e290 e1bf
00000330: 1bce 2517 5497 b83f 024e 40a0 8f37 ed3f
00000340: c762 c3e9 df68 e03f 9c16 eabc a1b2 e43f
00000350: 7213 46ff ffff efbf 09ff 075e cd1e e03f
00000360: 7a68 8822 b9d6 83bf d5d4 4806 8172 d93f
00000370: c02a fee8 77f7 ef3f c254 b037 d2f9 d63f
00000380: 3f67 05cc 3cd5 dd3f 407c c197 fbc4 df3f
00000390: fea4 7160 bc33 d3bf 7a5d 7c5d d888 ed3f
000003a0: ecac 626b fcd9 b73f eb20 5852 48ce d53f
000003b0: fabe 0a76 d5ce e23f 75c5 49ee 8c36 eb3f
000003c0: 4b1e efce 62ba d93f c932 7d16 34fd d1bf
000003d0: b9b5 c1be c303 eb3f 2ef8 543e ae0d efbf
000003e0: 813e c2d8 a68f d43f b460 ed61 8e79 e73f
000003f0: ec99 87fd ffff efbf ffff ffff ffff efbf
00000400: d28f f0e3 05e6 edbf 0095 3ac2 0d67 da3f
00000410: 0e7b 05d5 6181 ec3f 5f46 511c 0363 efbf
00000420: 1bd6 19a9 42af ee3f 7c06 42da f680 c8bf
00000430: cd1c 7d27 89f4 cb3f 4829 ee04 662d e43f
00000440: 2509 d38d 6e52 e63f 3bfb 3dea 8471 ec3f
00000450: e0c7 1b60 58c3 d03f 4ea0 e7d2 a733 e73f
00000460: 2917 2e75 3975 aebf 389f 18e6 cc1c aebf
00000470: b51f 2574 65f0 e73f 7d47 4eb7 f295 aebf
00000480: 649d 14e4 0ac7 bb3f 1df3 20af 726e eb3f
00000490: 9677 9bbb fb32 e3bf 1c94 cacd 54b1 efbf
000004a0: 0000 0000 0000 f0bf 426e f067 a8ff efbf
000004b0: 91c9 38b5 c8fc efbf d625 9fc9 b34b d4bf
000004c0: 4eff ffff ffff efbf adf6 7be5 a860 dd3f
000004d0: b36c 155b 7205 e6bf bd7b 5245 fbb5 d43f
000004e0: b2bd 8033 fcbe eabf 9773 28f3 66e6 efbf
000004f0: 303e 648a c93d d3bf f428 6d1f 7dbd e5bf
00000500: 1f91 a041 64f2 dabf f04d 6695 460f e33f
00000510: 3a5f 8dcc 2cc2 debf e6cc 3f81 4440 d4bf
00000520: 0f7e a69b c6f7 db3f becd 84f2 8ccb e63f
00000530: fa33 f634 ab01 dabf f0ef 04e4 894f cf3f
00000540: 6198 d7b3 8634 e33f d804 ea45 8b9e e43f
00000550: cfb8 ca42 939e e73f df39 fb19 87a0 e8bf
00000560: 9c64 49d6 fdd5 ccbf 5507 8bc5 a66d dc3f
00000570: 49de 42fc f910 e23f 94e4 36d6 4ad0 e8bf
00000580: 94e2 47ae 5243 eabf 69ca cdfa f366 c63f
00000590: 920a 3baf 265f e0bf 54f9 ac4c d418 d53f
000005a0: 5bfa 6208 0ce1 c4bf a1ce 1978 e9e1 e83f
000005b0: 8d79 3183 80f3 eabf 9db8 a172 0754 ecbf
000005c0: c842 edd8 a313 c5bf 432a 9ce2 914f aa3f
000005d0: 51ad e5f9 e25a be3f 5f47 daf8 55e9 e7bf
000005e0: 2e87 0295 c176 b63f 01dd aca4 ce75 bebf
000005f0: c463 d423 8c32 e13f ef2b 48c5 7642 eabf
00000600: a252 865d 8240 c3bf a220 e92c d446 cc3f
00000610: 1732 9027 02fe e2bf 4dc3 1f26 9445 ee3f
00000620: 78c2 ad17 dc6c e13f fcff ffff ffff ef3f
00000630: 0e49 6b7b 1ffd ea3f 215c 1771 8be1 da3f
00000640: 1445 3497 c5a8 d5bf 57b2 69fd a055 d53f
00000650: 2711 f03e bc28 c33f 0fd4 b6fd 5699 e63f
00000660: 0cc2 313b e747 a2bf a9d5 7c74 1d72 e3bf
00000670: ed6d 7c7d 64bb e23f 0423 762d 3bbb eebf
00000680: a06d 919c 0b97 e0bf b8ca fc79 84a7 e93f
00000690: 2643 6370 47d0 eb3f 7946 9054 4a86 eb3f
000006a0: 242d 7ce3 83a1 e63f 4367 df75 afab e73f
000006b0: ee72 0f1c befa d63f fd42 f0bc 30bf d63f
000006c0: 0000 0000 0000 f03f 1cba edfa 8cb0 ebbf
000006d0: 447f b440 7f4b e53f 0000 0000 0000 f0bf
000006e0: 7d74 f635 5913 d9bf b17b 8a88 58c9 bdbf
000006f0: 28f0 b034 fcb4 e1bf dac4 95d2 99c4 b13f
00000700: b5ba 135a bcbe df3f d211 9558 8867 e63f
00000710: a05b 0a4a 2fec ef3f f7e7 415e a1b0 d33f
00000720: 51f2 2fb6 3285 d8bf dc87 2d86 1cae d5bf
00000730: 4fe4 524f bca4 b93f 2087 43d2 3cd1 19bf
00000740: e871 a4b9 0687 ed3f 9e87 90a7 d89a dd3f
00000750: 76f9 fed0 f6fa ef3f 0000 0000 0000 f03f
00000760: 322d 8923 0cd5 da3f 0188 feff ffff ef3f
00000770: eda4 f07f 6059 eb3f 4968 d55c 9bb5 e83f
00000780: 04db cbde 4cd1 edbf 52ee 834c f46d e9bf
00000790: 152a 9fce 36cd e73f 58b9 387d 4e41 edbf
000007a0: 23b8 cfcb ad3b e83f 5df8 7ba2 fcff efbf
000007b0: 245f 2ed5 b2bb a8bf 14b6 5f67 be54 a1bf
000007c0: 0000 0000 0000 f03f 5d26 e871 62da b4bf
000007d0: 9ae6 60ec e3c6 ecbf 9547 1b87 3a13 dbbf
000007e0: 717b 279a 7be4 ed3f 9ccd c65d 7508 db3f
000007f0: 4dcc 1f92 ac0c e03f bc02 1295 86bb dfbf
