Example world2-1 walljump/best_ind_gen11771/W2.npy (npy, 560 bytes, 1 tensors)

array f8 [6, 9]
00000000: b916 bea3 ecbc eb3f 5d15 c14d 2b9d e63f
00000010: e86b b290 4663 bcbf 881a 30e0 ecf0 efbf
00000020: 68aa 4a92 550f c2bf dcad 0e2e feff ef3f
00000030: 189c 272d b767 eb3f 02d4 d518 364c e33f
00000040: 69b7 b313 a654 eebf 1b13 6196 6263 d93f
00000050: 2b47 d9e9 3a37 dd3f e902 0b7a 33ae c9bf
00000060: fc8a db76 14eb a33f 7f14 97da 2be7 e6bf
00000070: 8786 96c2 69a4 ed3f 7810 dae4 9466 e83f
00000080: 3054 0eb1 347b c93f 45b7 f755 3764 e93f
00000090: f748 d37a 8768 eebf e569 29ef 3daa e6bf
000000a0: a993 d74a 0f31 e1bf be61 f4d6 9b64 e9bf
000000b0: 9718 a4db 1693 d7bf eca7 c10f 0c18 eabf
000000c0: f4e2 a9f8 802f c0bf e2ed a2a5 3a20 e53f
000000d0: 2150 a262 0a90 2f3f 57cd 888d 1483 e53f
000000e0: 5d4b 5d95 17af b4bf 63b6 5096 12bf ed3f
000000f0: c190 a5b1 5559 d83f 1fa6 856d 6b5e d0bf
00000100: 4661 4019 22f7 efbf 8688 35ab 3834 ef3f
00000110: 682a 1296 2139 d7bf ab4f c40f 1fea ebbf
00000120: bf92 a75d 6773 e23f 075c 643e f1fc efbf
00000130: 8296 6a4e 0d4d c13f fcca 8be7 ffff ef3f
00000140: da58 5418 bff8 ce3f a6b5 fc60 0204 d5bf
00000150: 3623 73d3 adf6 e9bf c3b5 52d1 1976 d3bf
00000160: c4fc 7c93 5e7d ecbf c0e4 a356 d6ea ec3f
00000170: 4f6e e517 1090 e6bf e4b7 ff2a f583 e73f
00000180: f4e4 d70e 5c51 eb3f 7e0a 924d ae08 eabf
00000190: 39ad a39d ffff ef3f 7a0b 7cf9 29cc e13f
000001a0: 3b15 d5a4 89f6 c93f 61fd 0ccf 5fdc b03f
0.866812057313573 0.7066856878888462 -0.11088982613220788 -0.9981598261518494 -0.1410929645838508 0.9999991321141652 0.8564105874946817 0.6030531392158311
-0.9478330979161288 0.3966909855410436 0.45649597965995053 -0.2006286950982237 0.038902892598136035 -0.7157191533411974 0.9263199615999874 0.7625221700441349
0.19907244344054353 0.7934834174209092 -0.9502599142963665 -0.708281485665165 -0.5372387372741417 -0.7935313413936951 -0.36835261773411204 -0.8154354388946081
-0.12644970075395856 0.6601842150770916 0.0002408039738993626 0.6722510113089964 -0.08079669376938399 0.9295742927403804 0.3804525599318929 -0.2557629174758364
-0.9989176266854336 0.9751246780326859 -0.3628620114838328 -0.8723292644449335 0.5765873746100495 -0.9996267527193375 0.13516393975185187 0.9999999544509985
0.24196613967860153 -0.3283697077884774 -0.8113621835592315 -0.3040833038492929 -0.8903038864736108 0.9036666576568209 -0.7050857989046991 0.7348581161329517
0.8536815919789249 -0.8135596766517919 0.9999998167890346 0.5561723587746734 0.20283623264746517 0.06586264424276102
