Example world4-1/best_ind_gen1377/W1.npy (npy, 5888 bytes, 1 tensors)

array f8 [9, 80]
0	0xbfec908a9a9c3a25	-0.892644216511887
1	0x3fe893c680d63dfe	0.7680389896722202
2	0xbfbf88acf15dfa42	-0.12317925350905859
3	0xbfdd12c53d893fdf	-0.4542706585825708
4	0x3fccc6a131600ab4	0.2248116961564698
5	0xbfd3dde8ae046906	-0.31041924470777393
6	0x3fefdca58d4bd363	0.9956844100657744
7	0xbfb0faf7cf1aec4f	-0.06632946783331416
8	0x3fe9dbfc7faf721e	0.8081037992338371
9	0x3feff97e1654d52c	0.999205630889866
10	0xbfc9c59b13bccc67	-0.2013429495214922
11	0x3fe97bfa3be12bad	0.7963839692614464
12	0xbfcf595665f76b4a	-0.2449138639338691
13	0xbfe57c00ae87bb11	-0.671387043837827
14	0x3fb2efcf0145d810	0.07397168904375939
15	0xbfeb3ba1d00985ac	-0.8510293067194445
16	0xbfdf5a92dee7b761	-0.48990318077163947
17	0xbfc52dc9d95f764f	-0.16545985330496868
18	0xbfe9023e7c78dfc6	-0.781523936376282
19	0x3fb679d5e2727de3	0.08779656198975476
20	0x3fdf29e4575b2083	0.48693188219886724
21	0xbfebd3335c08026c	-0.8695313260541986
22	0x3fb0c6017253b4f1	0.06552132645784405
23	0x3fa50ca1fc66cf7e	0.04111200529169333
24	0x3fe9aaadebfa9673	0.8020848854982446
25	0x3f896cc38756fe7c	0.012414481704467344
26	0xbff0000000000000	-1.0
27	0xbfc2575caac46496	-0.14329107607116914
28	0xbfe29b4ac6ab1a89	-0.5814565544358895
29	0xbfeda51367c14f9b	-0.9264008547274786
30	0x3fe231ef165251e1	0.5685954509704595
31	0xbfdeb586711bc4c5	-0.47982941671132223
32	0xbfc9960dfd01bf55	-0.19989180425499833
33	0x3fb6302585449a53	0.0866721582757262
34	0x3fc5e442eaaf9397	0.17102848490972342
35	0xbfe144aa7eae352c	-0.5396320795277112
36	0xbfe8b41e0022cf78	-0.7719869616180253
37	0x3fefea156fea6d5a	0.9973246751646159
38	0xbf9209f2418b0a72	-0.017616067171511714
39	0x3fcd0709a97038cc	0.2267772748313689
40	0xbfd6288906c7490d	-0.34622407590826826
41	0x3fede6e7367e5dcb	0.9344364227608194
42	0xbfd9818f15a54cea	-0.3985326491721951
43	0x3fe2b4c7b255f343	0.5845678790206893
44	0xbfd6c14a4f97d75b	-0.3555475022579821
45	0xbfed0766be5a276c	-0.9071534841361717
46	0xbfd098b530000daf	-0.2593205422164954
47	0xbfdb1984d6c983e4	-0.4234325501948304
48	0xbfeac69f7e7fb7ae	-0.8367459746057102
49	0xbfe09b4cc207c682	-0.518957499471256
50	0xbfefff8a925ba5f0	-0.9999440058283522
51	0x3fb0227470d4a89a	0.0630257392373629
52	0xbfea901909d8b53a	-0.830090064269519
53	0x3fe2a10e4227d269	0.5821601192570373
54	0x3fdc52e96bfa1e16	0.4425605349028684
55	0xbfe51e4b1ca683e5	-0.659947925527487
56	0xbfe31471d6b78892	-0.5962456887903207
57	0xbfbd1df512077000	-0.11373836221849842
58	0xbfeb67a7f903dd93	-0.8564033378196875
59	0x3fcc6bb96dcd1dc5	0.22203748570812656
60	0x3fcf728db8536b92	0.24568339824949398
61	0xbfdcf512f14b82c1	-0.45245812953912085
62	0x3fe4c33cdaf8fe94	0.6488327290353078
63	0x3fd1397a45b05905	0.26913315587570735
64	0x3fe2229db7434be7	0.5667255954125466
65	0x3fdd2814ddc3fd27	0.4555713811568744
66	0x3feffe7b3e625684	0.999814626544961
67	0x3fbf51afc2916be8	0.12234018802830315
68	0x3fd18f1b3f1e5648	0.27435952342907344
69	0x3fe3fe5e8f611692	0.6248009491325368
70	0x3feffc21cded316e	0.9995278379442831
71	0xbff0000000000000	-1.0
72	0xbfd38eb8a9773397	-0.3055860190332224
73	0x3fdfe6a055c473bb	0.49845131278726357
74	0xbfdce2b2c1676884	-0.45133656394103405
75	0xbfe9fbb1a7d93cb2	-0.8119743612568497
76	0xbfec69a066f26793	-0.8878938685113432
77	0xbfe0c2b72abda45b	-0.5237689814358747
78	0xbfc13c1c20170b5c	-0.13464690749068609
79	0xbff0000000000000	-1.0
80	0x3fe5b8076875f58d	0.678714469933469
81	0xbfdf3805f5cba031	-0.48779438975771244
82	0x3fcb19ec020b8780	0.21172857379775323
83	0xbfd36b5dd395db5c	-0.3034281317008458
84	0xbfddd9e319c9491e	-0.4664237739390432
85	0xbfae604badf413b3	-0.0593284273000231
86	0xbfefffd922e3ce6d	-0.9999814683382745
87	0x3fec66c929786534	0.8875470933882412
88	0x3fefffff697d20e6	0.9999997196510122
89	0xbfc2a6e2ff2e6936	-0.14571797809623782
90	0xbfe59b0ebb4254b7	-0.6751779229549787
91	0xbfe4d6c010732dc4	-0.6512146302497333
92	0xbfd8ff588bf35624	-0.3905850760178018
93	0x3fe844dbe89f3b8b	0.7584056418798907
94	0x3fd1b86f054e347b	0.2768819381534013
95	0xbfefffdb56e1f760	-0.9999825188567506
96	0xbfd6b40b1d482fc2	-0.35473897800033793
97	0x3fd64190563bafc9	0.34775169774252085
98	0xbfc2071301de715a	-0.1408408888936588
99	0x3feffd1891523529	0.9996455038359829
100	0x3fe7ca1988ebe737	0.7434203790901169
101	0xbfc335cc4cb50595	-0.15007928605522794
102	0x3fbeeab59def5127	0.12076888185339794
103	0x3ff0000000000000	1.0
104	0x3fb2a03ce26a4de1	0.07275753524509511
105	0x3fc866048a66d6aa	0.19061333425422805
106	0xbfdd9c294c15d305	-0.46265633039665516
107	0x3fe1f30a229a9f0f	0.5609179187640353
108	0x3fd94683ff998a1e	0.39492893181719235
109	0xbfe4b991d21495e8	-0.6476525405057005
110	0x3fd8d48d5b31af3d	0.38797315507575886
111	0x3fda1b92666fcce6	0.40793285373292887
112	0xbfdeb581825d2d44	-0.4798282406888641
113	0x3fea1966dba9f38d	0.8156008043584834
114	0xbfe1415607e5d840	-0.539225593018962
115	0xbfe6d0f87bf9a63c	-0.7130091115370258
116	0xbfee37760ac4e154	-0.9442701540311114
117	0xbfe1c9cfe0780c80	-0.5558852562102317
118	0xbfeffdb120636b93	-0.999718249567524
119	0x3fd8af156515434f	0.38568625327484524
120	0x3fd94a5f257d176b	0.39516428624153005
121	0x3fe4de73d9cf3e02	0.6521548513500763
122	0xbfe6e0d8acaae2c2	-0.7149470684444952
123	0x3fbc0c8dbff97ea9	0.10956655442123044
124	0x3f9b6c97895448e8	0.02678143287364146
125	0xbfdc30c7677781f5	-0.4404772291582327
126	0x3fe1d3283df7e7d1	0.5570260248489324
127	0xbfd18bac23109f62	-0.2741499273711182
128	0x3ff0000000000000	1.0
129	0x3fe3a7c7b3ab64f7	0.6142309674425225
130	0x3fbcc9ebc0dcf64b	0.11245606859753214
131	0xbfaa9d60ba102916	-0.05198194762495427
132	0x3feff8221ef50233	0.9990397076254055
133	0xbfeff3b6a495e889	-0.9985001768648242
134	0xbfe29c62185f681d	-0.5815897441891625
135	0xbfe23104a2c7f65f	-0.5684836558645648
136	0x3fdb609213817d5b	0.4277692022787584
137	0xbfed5c09c23bbfd1	-0.917485122072316
138	0x3ff0000000000000	1.0
139	0xbfa4dff6d1f5df33	-0.04077121079438797
140	0xbfefffdcf5097d74	-0.9999832902794155
141	0x3fefdcbe31f22058	0.9956961608413719
142	0x3fc5fe20fe51aea9	0.17181789796756178
143	0x3fe18bb4c8a40aee	0.5483039778485741
144	0xbfe43879769448d1	-0.6318938556671815
145	0xbfd0da890323365f	-0.26333833032990656
146	0x3fe47d448db494e4	0.640291477936128
147	0x3fe4a42ebc2cbd3d	0.645041816262086
148	0x3feac0d3771caaeb	0.8360383345037382
149	0x3f8dbeb989aea22e	0.01452393485472311
150	0xbfe036987ed91169	-0.5066645123957133
151	0xbfcf1788499f3250	-0.2429056510431047
152	0x3fce863539e929ae	0.23847070052791025
153	0x3fe87e03957cd80a	0.7653825683289608
154	0xbfe76ec538018438	-0.7322717756143282
155	0x3fd07c8516f9b9c8	0.257600090443614
156	0x3fcfbc82631669cd	0.24794034803637857
157	0x3fcdd3bffab5c478	0.2330245947046341
158	0xbfe58a6119c8fcd8	-0.6731420043578522
159	0x3fe45e6a0d6db49c	0.6365251791263691
160	0xbfb9e7f6f9805818	-0.10119575110761081
161	0xbfd1ae368b24627a	-0.27625812137697603
162	0x3fc91774befb253b	0.19602832150693836
163	0x3fdaa2bb609497e4	0.4161823695343385
164	0xbfd511f956d81125	-0.32922204476223477
165	0x3feffffaa28425a6	0.9999974416870614
166	0xbfc013ca5f8aba78	-0.12560395875103203
167	0xbfefffffb2bce47f	-0.9999998560880526
168	0x3fea606f4f2fc63f	0.8242718264211318
169	0x3fe5bfd930196049	0.6796689929424328
170	0x3fdec18176431247	0.4805606512930222
171	0x3fe1c7e7551b2681	0.5556523000934278
172	0xbfecf0177a3d17af	-0.9043080699418534
173	0x3feffff5f96580ac	0.9999952193284307
174	0x3fe1c34578ac0b30	0.5550868374706166
175	0x3fb865d495bac50b	0.09530380874163684
176	0x3fd88d0ce28666f9	0.38360902902205357
177	0x3fcf71dabf35b9ff	0.24566206299228097
178	0xbfefffffffffff01	-0.9999999999999717
179	0xbfdae41ca5b3a9a6	-0.4201728456670487
180	0x3fb581ea22d2fed0	0.08401358938408099
181	0x3fd8ee1a71893e6b	0.3895326718092977
182	0x3fef89f8bd21a38c	0.9855922407124225
183	0x3fd126252527a402	0.2679531920280739
184	0xbfeaa0c838ae15d0	-0.8321267230064056
185	0x3fec635a2e3aad3b	0.8871279623903442
186	0x3feacd92ca97365d	0.8375944096421325
187	0xbfd65e2bcea824fa	-0.34949774915055765
188	0x3fd6a81e5a5c4612	0.35401114296209457
189	0x3fee1305401deef8	0.9398218395503752
190	0x3fe2ad42d67b4810	0.5836500348179943
191	0xbfd2e92a543c16b2	-0.2954812834362698
192	0xbfcb0b689ded0448	-0.2112856646654413
193	0xbfd82ec5858f5cd1	-0.3778547100350354
194	0xbfef9ca1d4851482	-0.9878701353815276
195	0x3fe4b82d7032fa34	0.6474826041592849
196	0x3faef99db449942e	0.060498169191113824
197	0x3faaa0b391837ce0	0.05200730468072279
198	0x3fd657cb46c23277	0.3491085234643729
199	0x3fadf7b7f521fe15	0.05853056781142755
200	0xbfd98a1f773c53c3	-0.3990553535853076
201	0x3fe0dde05938f678	0.5270845167758145
202	0xbff0000000000000	-1.0
203	0x3feffa39d2f2939b	0.9992951507634759
204	0x3febf3e0873c1a00	0.8735201493553291
205	0x3fd6bd694d25637b	0.35531075032991283
206	0x3fcb2fa48d4d5812	0.2123914422942908
207	0xbfd669ae62f4af15	-0.3502002683987809
208	0x3fda18ba2fbd99bf	0.40775923406763676
209	0xbfecdbcc835c3f1c	-0.9018309178954698
210	0x3fe1ddc4419dc844	0.5583211213654597
211	0xbfdd783d2a52b241	-0.46046380169972073
212	0xbfe6db6c0fc239b4	-0.714284926203439
213	0xbfe3e55f9b1478e8	-0.6217496899514829
214	0x3fe0a6c39d381190	0.5203569479640908
215	0xbfe54d98b03d144c	-0.6657222215805034
216	0x3feff7610c5ee7f2	0.9989476434341198
217	0x3fea0cdbabbebe70	0.8140695909878115
218	0x3fc8d5286315c666	0.19400505865228296
219	0x3fd7da69db27e0a0	0.3727059021180228
220	0xbfe8e1140550e9de	-0.7774753669576133
221	0xbfdb3cfc7e641c0f	-0.4255973085677746
222	0xbfd38fc77ec83e5e	-0.30565059071611766
223	0xbfe0e4f94103549d	-0.52795088479856
224	0x3fac6956b0d3d1d6	0.05549117001092767
225	0x3fece2cdad002b21	0.9026859644812683
226	0x3fe55ddb898ed022	0.6677072226216334
227	0x3fe79a903ad95031	0.7376176022903619
228	0x3fde522337d047f9	0.47376327944323254
229	0xbfdf64bad5af8fc5	-0.49052306049111066
230	0xbfefffa2a304b5e0	-0.9999554809525613
231	0xbfcfa5c46454a042	-0.2472463121314395
232	0x3fd23b3c2017eb31	0.28486540922283426
233	0xbfe03076a5efcbe1	-0.505915950865866
234	0xbfef3f8066eaf3b2	-0.9765016565430555
235	0x3fefffffffff8b2e	0.9999999999966798
236	0x3febc884cc3576de	0.8682273853734974
237	0xbfefd7555a3f2ce9	-0.9950358164436724
238	0x3fe808b6483c7df4	0.751063481413381
239	0x3fdf6679a6dd6abf	0.49062958999062894
240	0x3fe11edac80786e0	0.5350164324592832
241	0x3fe91cb2c19d34d7	0.7847532063985011
242	0xbfeffde596c96f4a	-0.9997432656341314
243	0xbfbebf9dabba8245	-0.12011132662383613
244	0xbfe4c14a22f8e861	-0.6485949214031842
245	0x3fea4ad11d0b1cbe	0.8216329161886262
246	0x3fe64ed6179cf572	0.6971235715097193
247	0xbf6ee5c04caf721e	-0.0037716632700564153
248	0xbfe659ac81fbcc82	-0.698446515917013
249	0x3fdbe67bd2a4ac5b	0.435942607599548
250	0xbff0000000000000	-1.0
251	0xbff0000000000000	-1.0
252	0xbfd14b8814d08a1b	-0.2702350810306215
253	0xbfe1a53de067cada	-0.5514211066168528
254	0xbff0000000000000	-1.0
255	0xbfeffffdea0010c6	-0.999999005347967
