Example world4-1/best_ind_gen1377/W2.npy (npy, 560 bytes, 1 tensors)

array f8 [6, 9]
0	0xbfec5defdc1e56ac	-0.8864669131459855
1	0x3fd71eac678e831a	0.3612471591277867
2	0x3fced1e26f5270a3	0.24078016696592383
3	0x3fefa03fe6e39148	0.9883117208051226
4	0x3fe6ef2632922046	0.7166930186949763
5	0x3fd56e41c00430d9	0.334854543224322
6	0x3fefffcd0a14c334	0.9999757000824503
7	0x3fc268b436dc3c23	0.14382031134343362
8	0x3fa4257005298ecc	0.03934812605873858
9	0x3fc102c8f382100f	0.1328974904064357
10	0xbfefffffffffd544	-0.9999999999987854
11	0xbfcc250114589d57	-0.21987927907432933
12	0x3fe1aab5795ac7f6	0.5520884866912172
13	0x3fe6ab4413ba7e91	0.708406485111441
14	0x3fd3d1253f82fb00	0.30964022829350313
15	0x3f263fff23c9a6a0	0.00016975392817935187
16	0xbfd4950abc6a2f36	-0.3215967979419817
17	0xbfee7693a8a1d94b	-0.9519747060392459
18	0xbfefffffffffffff	-0.9999999999999999
19	0xbfe324fbf9b61572	-0.5982646825001849
20	0xbfd9855f1a032a95	-0.39876534977217065
21	0xbfe4096e134c9051	-0.6261511208472347
22	0x3fd26fe6f5f67361	0.28807996768755656
23	0xbfbac6aac2e63d18	-0.10459391840253252
24	0xbfe5b32afe095a1b	-0.678121086278057
25	0xbfd6a064dec19c6f	-0.3535396743158747
26	0x3feff8a05926e332	0.9990998975036745
27	0x3fe04ca1e8ffebc9	0.5093545485282159
28	0x3fef9cfd8e599ce7	0.9879138736986562
29	0xbfc1e1fa703e8c11	-0.13970880966834945
30	0x3febf2c712f52e03	0.8733859415310125
31	0x3fefd12739a12fc9	0.9942813993052307
32	0xbfe2cfc1e7f48628	-0.5878610163092093
33	0x3fee24b12db7ed81	0.9419790165842842
34	0xbfb770e16bd23c76	-0.09156617052416202
35	0x3fdbbba44ae1841c	0.4333277446040158
36	0x3f7861ecffe1cea1	0.005952764300775877
37	0x3feffffffee57abb	0.9999999979443922
38	0xbfb9580a496d58af	-0.09899963658003473
39	0xbfef833bf762f8b1	-0.9847698051232979
40	0xbfdbe87b157c5b42	-0.4360645017454098
41	0xbf91b657ac0f0196	-0.017297143818497306
42	0xbfdea8485ba7c96d	-0.4790211577484545
43	0x3fdcb077096eb6c4	0.4482705680955912
44	0x3fd73df0793ef269	0.36315547790926545
45	0xbfe00cc610aabdd3	-0.5015592885519545
46	0xbfe4b8d6d92bc4ad	-0.6475633851643089
47	0x3fe7f1b570a3623d	0.7482554626431647
48	0x3fe506172330b84b	0.6569934546767028
49	0xbfdccbd6bbbad98b	-0.4499413331317547
50	0x3feae4febacd6753	0.8404534958346893
51	0x3fd0ec36d97b0ecb	0.2644173740229518
52	0x3fd15cd8822fb31a	0.2712918540335508
53	0x3fe0330f1bd1b6e7	0.5062327903121656
