Example world1-1/best_ind_gen1214/W1.npy (npy, 5888 bytes, 1 tensors)

array f8 [9, 80]
000000 23 a1 c2 26 47 0c e4 bf 9f 3d b5 f2 ca 3c d8 3f
       -0.6264987713848637 0.3787104959673914
000010 01 b4 9a 46 92 e6 ab 3f e4 a8 a3 e7 fa ef e0 bf
       0.054493495100679475 -0.5292944454388615
000020 05 40 91 67 ed 82 e6 3f 3d 31 7f ff 21 ce a4 3f
       0.7034823439407779 0.04063516849382374
000030 c9 7c f4 fb 85 f7 e9 3f 68 69 1a 01 3c c7 e5 bf
       0.8114652558323537 -0.6805706044718081
000040 00 68 5c 53 04 e7 e0 3f aa 0d f3 70 fd ff ef 3f
       0.5282003048080242 0.9999987798732282
000050 7f 0f 31 90 05 74 ca bf 35 c5 1d 15 04 2c ed 3f
       -0.2066657022534137 0.9116230404307887
000060 d4 b1 9b 98 33 af dc bf 65 60 d0 a2 d4 95 da bf
       -0.4481934538187293 -0.41539493465234606
000070 0e cd 53 dd d6 69 d0 3f 31 c9 97 9c 06 9f d4 bf
       0.25645991910933297 -0.32220616619374015
000080 32 30 21 96 c1 8a db bf f4 96 60 ab da 68 e4 bf
       -0.430344006167391 -0.6377995822155911
000090 4b 22 9d 62 e5 a8 d9 bf de c1 d7 6e f1 1c e4 3f
       -0.4009335959458766 0.6285330929659343
0000a0 33 09 71 d2 76 47 c9 bf e3 b2 8a ac e0 20 e5 bf
       -0.1974934127375235 -0.6602633829075696
0000b0 d9 fa 67 44 f6 ff ee 3f 14 66 47 a8 ca 95 c3 bf
       0.9687453590448413 -0.15300877777808408
0000c0 86 1b 43 5e 5b f5 ef 3f 5c d1 a6 81 aa d5 cc 3f
       0.9987007943208119 0.22527057009359452
0000d0 29 68 8f c3 ea 75 e2 bf 12 d7 06 e1 c8 bd c5 bf
       -0.576894170716746 -0.1698542689097669
0000e0 cf 73 b2 de 3e cb dc bf 41 83 d6 fc 81 31 ee bf
       -0.44990512607347183 -0.9435434282532712
0000f0 47 10 47 8a a8 49 dd 3f e7 a7 31 ae 7d dc c3 3f
       0.45762074950858217 0.15516634946408134
000100 60 6a 7f 83 29 e0 e3 bf 6e d8 d5 97 69 11 da 3f
       -0.6211135452570709 0.40731277301472957
000110 b9 7f cc 18 99 8e d5 3f a2 73 01 29 7c a7 d8 bf
       0.33682849332580705 -0.3852224731870654
000120 69 9f 51 04 e5 2e e3 bf 8d 34 7e 6e b4 5c e8 3f
       -0.5994744381286924 0.7613165052477072
000130 6d e7 a2 47 8c 44 dc bf 5f 84 49 1d 8d b1 e1 3f
       -0.44168383594261834 0.5529237339034231
000140 2f 88 ae 48 3c 9a d7 bf e9 1e 76 5a 9c c7 7c 3f
       -0.36878878686741506 0.007026301150638161
000150 f6 f1 94 88 1f 98 93 bf 61 e8 55 5c 98 80 d9 3f
       -0.019134991370480102 0.3984738256182308
000160 b7 dd 4b 61 96 47 b7 bf 44 ab 09 cc 63 65 d0 bf
       -0.09093608737372604 -0.2561883442455619
000170 73 dd fd 50 b7 be a1 3f 7f 5c 17 01 44 04 7c 3f
       0.03465817321460465 0.0068400055328857725
000180 54 5d 8d 50 b2 2b e7 bf 34 87 27 de fd ff ef bf
       -0.7240840504918347 -0.9999989832833536
000190 53 0b 6f 39 9d e3 ac bf d2 b8 14 fd 7f 82 d1 3f
       -0.056424058209379034 0.2735900851720433
0001a0 f7 b2 46 03 22 bb ef bf fe c8 2e 02 e8 4f e3 3f
       -0.9915933670032179 0.6035041849739
0001b0 bb b4 8c 08 d0 5b d2 3f f0 11 80 3c 80 37 c0 bf
       0.2868537982456691 -0.12669375375857284
0001c0 f5 40 92 70 72 80 c1 3f 71 ad 8a ff 52 5c b1 bf
       0.13673239227910697 -0.06781500567256217
0001d0 a6 a5 bb cc c6 75 d1 bf 1f 98 64 7f a5 37 c5 bf
       -0.2728135108323734 -0.1657606956516142
0001e0 fd 3b a5 6e a6 4c bc bf c8 73 6b 36 f9 23 ed bf
       -0.11054458810143326 -0.9106412947545488
0001f0 4c 85 9d 36 f9 7b d0 3f 0b 0d 9e 2d 80 32 c1 3f
       0.25756674130942225 0.13435365893756343
000200 9a 02 21 ab 16 8d e2 3f fa 96 e9 5c f2 ff ef 3f
       0.5797227232324815 0.999993497342728
000210 b0 f3 ef d8 34 86 e4 3f 07 b6 b4 0b 14 47 e0 bf
       0.6413826214844587 -0.5086765507346066
000220 37 77 4b 9a a2 60 d9 bf 87 96 3a 8b 4b de e3 3f
       -0.3965231425080335 0.6208856314958248
000230 7c 5a e0 c7 ce 86 e3 3f dd 71 82 91 f0 94 d9 bf
       0.6102060226283608 -0.39971555910031303
000240 8b cf 0e 3e df a4 e3 bf ec 89 c1 0c bb 87 dd 3f
       -0.6138759815280407 0.4614093422480028
000250 8b 15 fd a7 6b d6 cf 3f 84 c5 b8 26 d6 5e e5 bf
       0.2487310953385243 -0.6678267246517611
000260 74 26 af 1b 60 ba eb bf 5e b9 28 74 ed 37 d6 bf
       -0.866500906057992 -0.3471635469785691
000270 b8 83 30 0e 75 4e d0 3f 4c 1b c5 b5 4d 5c c8 bf
       0.25478865037626575 -0.19031688094602328
000280 79 bb c1 e0 d7 10 ea 3f 9b 23 b7 e7 7e 42 be bf
       0.8145560636311152 -0.11820214421380941
000290 d5 f8 be 6d d9 83 dd bf c9 a2 20 8b ff f3 d7 3f
       -0.46117244450932776 0.3742674692789874
0002a0 0c 32 0c f0 39 b3 e4 3f fa 8c c8 04 5f 1e e6 3f
       0.6468782127790873 0.6912074178148082
0002b0 3d e3 54 f7 1a 1f e5 bf c3 34 3c 64 09 64 ec 3f
       -0.6600470381446041 0.8872115094869958
0002c0 b9 97 72 3a 7f 2f d7 3f de 2a 25 b9 13 13 d6 3f
       0.3622739859368909 0.34491437035164363
0002d0 19 ea 0a 2a de ff ef bf af e8 96 f5 b2 10 bd 3f
       -0.9999838658471304 0.11353605743252858
0002e0 c8 aa 8c 5f bb a4 c6 3f 88 7a 9e 3b 45 f7 ef 3f
       0.17690221944334028 0.9989343800005637
0002f0 37 d8 23 bd db cb d2 bf 79 19 fe 62 f7 c3 da bf
       -0.2936925265379417 -0.418210837051809
000300 11 e8 2a 41 71 3b d7 bf de 05 ae 75 e3 6d c6 3f
       -0.3630030762102488 0.1752285313232695
000310 f6 d5 25 cd bb 18 c7 bf e6 bb 05 be fe d9 eb 3f
       -0.18044230954153279 0.8703607283949821
000320 00 e4 e1 db 44 2e b0 3f 54 39 0d 25 7c fa 75 bf
       0.06320600860807701 -0.005365834179271129
000330 c0 e8 b2 f9 28 ff ef 3f f5 85 3b 9d 3b ca e8 3f
       0.9998974682742059 0.7746866293857112
000340 f6 a6 84 db d5 f2 ef 3f 00 00 00 00 00 00 f0 3f
       0.9983929908241567 1.0
000350 bb e5 85 82 3d cd e9 bf c8 06 5f 43 6a 1d ec 3f
       -0.8063037442472515 0.8785907092899032
000360 7b b5 06 34 22 fe ef 3f a7 0f 60 70 8d 7d d9 bf
       0.9997721687447404 -0.3982881162085001
000370 b8 9a 62 72 45 47 ac 3f 1f cc 39 1e 30 b3 df 3f
       0.055231256688150265 0.49531176521048964
000380 5a f2 4f 54 33 aa ea bf 0e 08 9b ae d8 82 e8 3f
       -0.8332764288639496 0.7659724626794302
000390 bf 3b 8e 0d dc d9 c4 3f 30 23 a4 fc ff ff ef bf
       0.16289854680914392 -0.9999999937436765
0003a0 6a 2f e0 56 be d6 ee bf 8e 27 27 cd 5a fd 9b 3f
       -0.9637138077537035 0.027333658954183764
0003b0 d2 04 37 f0 97 ff ef bf 42 d4 f2 39 1a b0 c5 3f
       -0.9999503795335392 0.16943672017592531
0003c0 4c 86 02 be a9 7d e8 3f 7d c8 05 a9 ca 74 d4 3f
       0.7653397284631835 0.31962839609253263
0003d0 a9 c2 76 42 db 51 cb bf 08 13 8b 3f f4 47 d2 bf
       -0.21343556161220548 -0.2856417294063225
0003e0 50 42 68 45 a1 5a d7 3f 89 b3 c1 82 5c bc d1 3f
       0.36490661409428515 0.2771216656608933
0003f0 3d 08 89 65 fa ff ef 3f 34 b6 67 d7 7a fb ef bf
       0.9999973281012512 -0.99944822379411
000400 00 00 00 00 00 00 f0 3f 49 f3 09 9e a6 02 ce 3f
       1.0 0.23445589749089837
000410 21 05 d5 f7 34 45 d4 bf 98 36 62 34 c7 38 c2 3f
       -0.3167240543590016 0.14235773141665642
000420 ea 53 71 60 11 f9 eb 3f fe 9d 60 fd da 18 ef bf
       0.874153793682692 -0.9717841099526934
000430 5a f1 b0 93 e7 e1 e1 bf ff 17 7a 7b ce ec ef bf
       -0.55882624479231 -0.997657052198292
000440 ad c2 71 64 a0 e6 e9 3f f1 47 98 cb 7a 50 ef bf
       0.8094026529125437 -0.9785741783582563
000450 89 de 37 24 9f ee ea 3f d8 3e cd ea 70 91 e6 bf
       0.8416286189448822 -0.7052540384265411
000460 97 81 5b 83 b7 5f 72 bf c1 68 28 5c 19 e0 d1 3f
       -0.004485813949685633 0.2793029212931622
000470 42 d6 fc 6b ce 80 c8 3f 48 56 c3 53 8f db ee 3f
       0.19143085739931293 0.9643017421719344
000480 c2 28 4e 57 60 74 e2 bf 55 54 75 d9 86 cf d5 bf
       -0.5767060952359986 -0.34079142795719025
000490 84 81 b0 58 5d 1c e5 3f aa d3 a2 8d 79 15 e2 3f
       0.6597124798027356 0.5651214376763296
0004a0 26 4b 44 6d f0 fa ef 3f 34 0e 1b fc 49 ce d2 bf
       0.999382222568191 -0.2938408815354905
0004b0 5e 1c f8 ff ff ff ef bf a6 b2 5c 95 c5 70 ca bf
       -0.9999999999425986 -0.2065665225321897
0004c0 ce b7 1c 7b 2f 97 de bf 65 15 59 0d 2a df e6 3f
       -0.4779776289241199 0.7147417317106998
0004d0 46 42 94 35 16 4e 9e bf 18 69 b8 05 4b e2 db 3f
       -0.02959475233098121 0.43568683203342706
0004e0 8d f6 88 65 08 e1 c8 bf fd 01 d8 6a 7f d6 b2 3f
       -0.19436745603336583 0.07358547552576762
0004f0 ab 33 59 9e 38 a9 da bf 48 4e e3 d2 f4 03 e1 3f
       -0.41657844032016084 0.5317329520134502
000500 36 45 af 9a ac bd cc bf dc f8 19 fc 0a 64 da 3f
       -0.2245383982940809 0.4123561345985658
000510 bb 0a 92 22 15 ed d6 3f 78 a8 b8 83 bb 41 ea 3f
       0.35822037101767606 0.8205239842111629
000520 3d 85 41 70 41 91 b2 bf d9 ac bc 63 30 fb ef 3f
       -0.0725289248525955 0.9994127223957562
000530 de 44 ec ff ff ff ef bf 2c eb 80 0d e0 1b e4 bf
       -0.9999999998564382 -0.628402735113331
000540 a8 1b 57 41 a1 48 ed 3f 1c 95 ea d5 04 11 ef 3f
       0.9151159549881998 0.9708275011113616
000550 17 93 0b 47 e1 ff ef 3f 2d 68 89 56 54 1e dc 3f
       0.9999853503801174 0.43935116244176947
000560 d4 1c a4 09 06 e4 e2 bf b2 c9 75 44 0f f5 ef 3f
       -0.590334910230832 0.9986645066367628
000570 88 9e b6 c3 40 cb eb 3f d0 8e 2c 2b fe 6e e8 3f
       0.8685611555601591 0.7635489314311261
000580 ad 39 52 71 ad 27 d4 3f bd 11 1a 0f 55 63 d2 3f
       0.3149217230465194 0.2873127601126518
000590 c4 cd 6f 55 f2 13 c8 bf ff 4f ca 3d 48 69 e5 bf
       -0.1881087224170256 -0.6691018301812618
0005a0 f8 11 98 fd 62 78 c7 bf fb 72 89 7f 34 9e df 3f
       -0.18336140997429573 0.4940310712316173
0005b0 4c 73 98 e7 a3 3d e4 3f ce 1d c6 d0 05 fe ef 3f
       0.6325244448995391 0.9997586324324688
0005c0 c8 d4 a8 b3 c7 fb ef bf 1c 10 9b c0 c4 6a eb 3f
       -0.9994848736738726 0.8567832719641078
0005d0 21 da 0f 97 d3 06 d9 3f 8c 0b 35 77 a9 1b e7 bf
       0.3910416579450687 -0.722126705957963
0005e0 b4 ad 5c 8c 76 c9 ef bf 09 1a 51 05 65 e8 ef 3f
       -0.9933426610418139 0.9971184829562968
0005f0 4b 4e 9c 12 d2 e3 99 bf 18 53 58 d9 79 6e d3 bf
       -0.02528312910642531 -0.30361791825389295
000600 0a 2e 4e 67 6d 64 ed bf d9 19 30 8c f2 97 df bf
       -0.9185091989215277 -0.4936491364500433
000610 58 05 cc f7 b6 ac ed bf 71 08 ff 62 e7 f0 ad 3f
       -0.9273333396705921 0.058478575548648666
000620 2d 9e c0 3a 79 14 d3 3f 2c 97 e3 3a 74 2c ce bf
       0.29812460649052036 -0.2357316291374273
000630 39 d7 25 4f 2a d3 c0 3f f0 1d 09 9c 2e 74 e0 3f
       0.1314442526306097 0.5141823813982551
000640 7e ec 3b 2b 6e 2f e8 bf 30 2c 28 79 c4 22 ba 3f
       -0.7557898373046468 0.10209300954754563
000650 89 5f fe 08 fa e9 ed bf c6 f2 99 61 58 60 ea 3f
       -0.9348116088540205 0.8242608934666229
000660 53 ed 6c eb 2b fc ef 3f 15 4b af ec 3a dc 67 bf
       0.9995326612619614 -0.0029126311178314748
000670 dd 61 0f c7 57 3f c6 bf 88 44 3d 98 26 03 dc bf
       -0.1738080713246423 -0.4376923071586778
000680 fd ff ff ff ff ff ef 3f fb 4b 38 c3 6b 56 ef bf
       0.9999999999999997 -0.979299432076345
000690 2a 68 e5 d9 09 c7 ef 3f c0 fd 1c e4 5a 05 dc 3f
       0.993046689585076 0.43782684590038556
0006a0 89 df b0 60 49 6f ea bf 39 66 9b b2 d6 da e0 bf
       -0.826084793900905 -0.5267137039583708
0006b0 4b 45 e7 a6 ec 53 ea 3f 43 47 22 dd 35 46 c6 3f
       0.8227446803886463 0.17401765153459267
0006c0 a2 d0 37 0a 33 c6 de 3f b4 f3 bc c9 0e b2 49 bf
       0.4808471298013136 -0.000784165592882516
0006d0 eb 82 62 7b 09 e2 a2 bf 78 9e 61 b2 5e 15 c0 3f
       -0.03688077574884637 0.12565215787911987
0006e0 00 00 00 00 00 00 f0 bf bd 3c 91 3a a1 ff ef 3f
       -1.0 0.9999548095601295
0006f0 31 c9 b3 35 62 dc d3 3f 29 cd 39 fa a8 09 e0 bf
       0.3103261494099057 -0.501179207536926
000700 31 30 c1 1e 3a 3e c6 3f 69 82 ec 50 a3 23 e6 3f
       0.17377401830378994 0.6918503361267315
000710 00 00 00 00 00 00 f0 3f af 94 8a d9 74 a8 b9 3f
       1.0 0.10022669135158212
000720 33 8d 5c 31 56 73 d2 bf bf 30 f3 18 2e 9c d6 bf
       -0.2882895929380595 -0.35328247486610204
000730 47 f7 76 f1 f0 49 d9 3f 84 a7 6d eb a9 f8 d5 bf
       0.3951380117467704 -0.34330223074959343
000740 d2 f8 a4 f8 56 ff ef 3f f3 78 11 85 df 82 e6 bf
       0.9999194008194314 -0.703475723170213
000750 0f fe 9f 1a a1 2e ef bf ad e7 19 e7 d1 f3 e0 3f
       -0.9744420547503426 0.5297631753630775
000760 1e c9 44 bb 96 ea e6 3f f2 44 b2 d0 ab a9 d1 bf
       0.7161363275138546 -0.2759809053469119
000770 0b d5 4b a1 f4 04 eb 3f b1 43 a2 44 98 fd d2 bf
       0.8443549299542225 -0.29672819807552303
000780 71 fc bb 33 7e 95 e7 3f d4 cc 28 76 4f 98 d7 3f
       0.7369986544071151 0.36867128886224276
000790 72 c8 13 99 d5 8d eb bf 9c a5 b7 f8 69 f9 d7 bf
       -0.8610637655058453 -0.37459801949315774
0007a0 b8 59 46 cf c2 0e d6 bf 67 d5 d4 3f 6c 3b e3 3f
       -0.34465093843155215 0.6010037657457986
0007b0 7b a2 e3 df 77 2e e4 3f 53 b3 a2 0f 09 8e a7 bf
       0.6306723950229548 -0.04600551906455643
0007c0 08 d9 ee 3d fc 00 e8 bf be f8 74 51 d8 b8 e6 3f
       -0.7501202783230676 0.7100640860515097
0007d0 00 00 00 00 00 00 f0 bf 98 6f 56 1a ff 33 e2 bf
       -1.0 -0.5688472284705197
0007e0 94 93 18 12 6c 5a ec bf e7 1a b2 10 7e f7 ef bf
       -0.886037860244516 -0.998961479767641
0007f0 00 00 00 00 00 00 f0 bf 20 d2 25 d8 70 a6 c5 bf
       -1.0 -0.16914187006081338
