Example world1-1/best_ind_gen1214/W2.npy (npy, 560 bytes, 1 tensors)

array f8 [6, 9]
-0.8927327085104941 0.6198700198392716 0.5709231619849907 0.9442047230814086 0.1796089090712761 0.6867686479736775 0.468621301021197 -0.1349890174693055
0.6291698437955253 0.9999867683808019 -0.999999997752248 0.3594034112172113 0.7077213528629669 0.33975083809712403 0.19180505474564302 0.1852094283332673
-0.8304022186914523 -0.9924013197138742 -0.3185328879347045 -0.41379102489556474 -0.48055412710871 0.026721480178416492 0.8391751560489271 -0.8881826403122136
-0.7963761839567887 0.08504514634352602 0.9972961686597992 0.7938007227490431 0.9903098045700046 0.5832483507461194 0.9586073946172537 0.2583175688148988
-0.6175787555243727 0.788250048254863 -0.3699869940438494 0.4432249330296183 -0.4349745404403072 0.9990828833043024 -0.047441107704051834 -0.8555082897175423
0.4754581814993974 -0.6310484708115269 -0.4905589430178463 0.31901192684745244 0.03093596985136977 -0.5610764409539287 -0.6281588452119339 0.6658144191151323
0.9999999999719387 -0.9986613965757499 0.7978698921278329 0.46280106323036074 0.705708867805072 -0.4912581445584341
00000000: 06e8 632f 4491 ecbf 9b60 dfa6 f9d5 e33f
00000010: 6b24 a8a6 0045 e23f dca0 cbd2 ec36 ee3f
00000020: e303 44bb 6cfd c63f f3e1 5e3e 02fa e53f
00000030: af14 8632 e4fd dd3f 8dc7 acf3 5147 c1bf
00000040: 1266 d7cb 2822 e43f cc1a 5440 e4ff ef3f
00000050: 4212 cbfe ffff efbf b8eb 4f2a 7700 d73f
00000060: 3246 2740 a7a5 e63f 769b 9a4c 7abe d53f
00000070: fc85 ab6a 118d c83f 2a16 cd4a f1b4 c73f
00000080: b3c7 79ac a792 eabf e1b4 9569 c0c1 efbf
00000090: bd51 18c4 d762 d4bf 6481 d359 8d7b dabf
000000a0: 71f1 f818 66c1 debf 2738 de2d e05c 9b3f
000000b0: 1c11 5bdb 85da ea3f 2982 2000 fe6b ecbf
000000c0: c60b 2de8 e97b e9bf 519e 3aca 84c5 b53f
000000d0: ee3c 9aa7 d9e9 ef3f 1af2 f7c5 d066 e93f
000000e0: 8b29 f12f 9eb0 ef3f 0fd1 fc71 f8a9 e23f
000000f0: 44b7 326a e9ac ee3f bbb3 8269 4688 d03f
00000100: 57cf b585 34c3 e3bf e166 4a2a 5839 e93f
00000110: 8846 d7ed ddad d7bf 7893 081c cc5d dc3f
00000120: f128 7274 9fd6 dbbf b221 b9aa 7cf8 ef3f
00000130: 6d5b 266c 334a a8bf 4c66 b9eb 5260 ebbf
00000140: 6ff4 0927 e86d de3f 3471 0a90 8c31 e4bf
00000150: 1468 4156 5165 dfbf 0b00 3600 b16a d43f
00000160: 736f 20cb adad 9f3f 9b80 8e94 56f4 e1bf
00000170: b51b 1c94 e019 e4bf 5ac0 690a 5a4e e53f
00000180: ae24 fcff ffff ef3f cd41 c2be 08f5 efbf
00000190: ecdd a470 2688 e93f 2838 c859 889e dd3f
000001a0: 020a 77c3 2a95 e63f 546a 3100 c670 dfbf
