Example world7-1 flagpole glitch/best_ind_gen8879/W1.npy (npy, 5888 bytes, 1 tensors)

array f8 [9, 80]
-0.452552831403664 -0.48025964539847527 0.6820126116934526 -0.689159783088591 0.9999508130584865 -0.9990086114557817 0.5429191012567286 1.0
-0.1836363316429539 -0.7108323990894112 -0.32756945802587994 -0.6536010307751879 0.9879254358708323 -1.0 -0.9997372251704715 -0.9307396204695841
0.3246474382757955 0.6094499438398868 -0.20880944100623308 -0.6160010896701085 0.2050179064092974 0.9078922428012921 0.8748044039732616 0.7422383631067563
-0.10481829633754673 -0.2339804961905027 -0.44572891049903796 -0.9931909400036667 0.5731143061192242 0.1814957243676947 0.40061811041515316 -0.5245800364095238
-0.6657615619806856 0.17979581000695144 -0.6867792369396425 0.23739272539482725 0.9952629545506486 0.9999787964672023 -0.14187947317932412 0.5683792314599507
0.8616070765196892 -0.661482280394675 -0.3271907862124256 0.30651145883229913 0.7450141861514761 0.9389364190428766 -0.021046224227004043 0.9985568702276394
0.07648946209614915 -0.14166838939405135 -0.4345125156708418 0.23433781262165446 0.8312400079654352 -0.06902971647672095 -0.8527001779073634 0.7928175228916013
0.2862987218109417 -0.5346735348742157 -0.9987585653562782 0.05091404830749568 -0.5576698321148855 0.6237128675683143 0.8844322364442567 -0.6082231884378667
-0.17830368785398645 -0.8162400087025784 0.9999954073064984 -0.3873767974310407 -0.42834003802086607 -0.08382069526138616 0.8787544039156178 0.11532314064342293
-0.09232133838284917 -0.6782645624631122 -0.31359661306267356 -0.861271088218141 0.1453701780644564 0.8819330969469341 -0.3889775481846416 0.7802904205314577
-0.6196074199039852 0.26285676531719043 0.557352881286943 -0.8463303586412685 -0.1807159944589251 0.2080410951930868 0.7755458091832917 -0.6918388524453182
-0.16918458508253745 0.42530096397348865 -0.9229804184810131 -0.45679436593183137 -0.8255679659831501 -0.19033978035706478 0.3384267040898544 -0.24002443182113498
0.9467030444104635 0.8805072650085723 -0.9999999687056299 0.023107151265734652 0.9999551385593181 -0.8904233533752081 -0.842048076495794 -0.056291890815991084
0.9971386363893281 0.8560898096020632 -0.7169183208728312 0.06264566317445824 -0.3029600852976172 -0.4195420031717561 -0.26815350300161195 0.07801752635366978
-0.8595353382677973 -1.0 -0.17997406918683992 0.09801604527964379 -0.85340866407651 -0.2561905857223526 0.25537253839129337 0.25122840917775774
-0.4273319621790389 0.9337850058731199 0.3158965126883631 -0.40579362544054676 0.5740926795099458 0.6081218805097409 0.8392490175914855 0.6038176701393946
-0.4416185377950781 0.23259742427784177 -1.0 -0.44802086565537147 0.48675312276234434 -0.9859770876184593 -0.36767967605298413 -0.9991565634839052
0.9983825211746018 -0.23021106236585315 0.7602002691096318 -0.8886863851577236 0.4564672850027794 0.4850163232155744 0.9388468005430383 -0.024984560542039288
-0.5128518740022173 -0.05595841447057943 -0.9999999996954798 0.3381011878380532 0.5387876580151841 0.9999999999983183 0.6276659101177422 0.7166991167352779
-0.26310043520937276 0.20552607257303715 0.06722325323831427 -0.5760513950558187 0.7808154447126912 0.9431639616332361 -0.699465071336825 0.48711042855336767
0.7020143818480336 0.9398214094974262 -0.5427419255289044 -0.6038294151018739 -0.42025851215363547 -0.9999970501028652 0.13876988650117802 0.19252484048309645
-1.0 -0.9999095368816707 0.07604935589412622 -0.13776880337633196 0.7866673620392286 -0.5176128945158232 -0.4918420895917748 -0.08993719792364505
-0.3720012988468838 -0.9898580269717712 0.675488347356794 0.308833889480509 -1.0 -0.441586449440682 -0.02654589189664996 -0.8652507664567599
0.9851694101032668 -1.0 0.2937442889926852 0.8260433088694323 -0.9438736221607581 0.40440621537123767 -0.5327767684114582 0.6830320606839069
0.7045716929802177 -0.017265914865340817 0.9994335616337158 -0.9982403259150683 -0.5468478343414036 0.4616818601451857 -0.5863629673124964 0.8148318228179032
0.9962719604251931 1.0 0.520233127387943 0.14067114705039888 0.661036928313047 0.9999995057102322 -0.14877074068833354 0.8982183008175715
0.6175261310729222 0.21062795384076022 0.691433090087296 -0.2918754704439824 -0.5941726517799029 0.9999999959124913 -0.8523910198197436 -0.9285902492821211
-0.9972394635934345 0.7087419659913362 -0.6504950302130453 0.7151415999189792 -0.983124467188394 0.9999845717937347 0.25145944411809384 -0.14081599886657548
-0.49535803343066653 -0.29024903527135293 -0.7464165852169529 -0.8655537352256403 0.5010481828531171 0.44950536012494846 0.9981230658099186 -0.6901782418422484
0.7492212095409209 -0.09071753733007717 0.7058810935300374 0.7042047453507569 0.8415484891806034 0.5985024549400781 -0.584280941884819 0.6756957404943525
0.22448726117792242 -0.5791319256504472 -1.0 0.3613546066761101 -0.8600552035520901 -0.04773495521454204 0.3471138347109213 -0.8835865294839848
0.995826145922152 -0.4390538527583205 -0.11149051992626796 0.37319742753779517 0.8229866818965107 0.5683179068392583 0.0029777036527896678 -0.9997630139285482
00000000: f0d1 a526 a0f6 dcbf efcc a4f3 92bc debf
00000010: 88da d51c 0cd3 e53f bdaf 42d1 980d e6bf
00000020: e13b f6d8 98ff ef3f 9eff 53e8 e0f7 efbf
00000030: ffae 08e1 975f e13f 0000 0000 0000 f03f
00000040: 60c7 6133 6581 c7bf f8d6 6096 23bf e6bf
00000050: 31ef 58e3 e5f6 d4bf 59f6 79b5 4cea e4bf
00000060: e674 becd 159d ef3f 0000 0000 0000 f0bf
00000070: 4a6e d6eb d8fd efbf 2044 e074 9ec8 edbf
00000080: 6bfb 870c 06c7 d43f 58ec 2a2b 9d80 e33f
00000090: 47e1 1b8c 44ba cabf 10df cdea 47b6 e3bf
000000a0: 38a8 8fd9 063e ca3f def4 6308 740d ed3f
000000b0: 24c8 2ece 65fe eb3f b529 ecaa 6ac0 e73f
000000c0: 9bcd ca32 5fd5 babf be20 85a9 12f3 cdbf
000000d0: b267 5e8d d286 dcbf d4f9 bf5d 38c8 efbf
000000e0: 8ddb 34d0 f356 e23f 41f4 427c 403b c73f
000000f0: 10c7 9a24 baa3 d93f b96d 9012 5cc9 e0bf
00000100: 6e82 f430 eb4d e5bf 1806 f891 8c03 c73f
00000110: 7f48 4773 18fa e5bf 1486 f083 e262 ce3f
00000120: 50e4 16b2 31d9 ef3f 73a4 7088 d3ff ef3f
00000130: 33b3 a348 1b29 c2bf 4613 5ba4 2930 e23f
00000140: 7def f400 4992 eb3f 59b7 25e3 dc2a e5bf
00000150: ee6e 959f b1f0 d4bf a62c e23c e29d d33f
00000160: e273 92fd 27d7 e73f 0e00 9a63 c40b ee3f
00000170: d47c 0933 248d 95bf cb5c 9a89 2df4 ef3f
00000180: 300c 313a d094 b33f 6087 a995 3022 c2bf
00000190: b092 2095 0dcf dbbf 218d b60c c8fe cd3f
000001a0: 8cd3 2aa5 8499 ea3f 373c b876 eeab b1bf
000001b0: ebf9 2ce2 5149 ebbf 2f7c 90da c25e e93f
000001c0: 5922 c4df b752 d23f 7f49 4aac 0b1c e1bf
000001d0: 53c3 d985 d4f5 efbf 1f7b c6f8 6711 aa3f
000001e0: 9bc6 5c67 6ed8 e1bf f89b 09b0 74f5 e33f
000001f0: 92cc 61d5 444d ec3f af4d e079 9076 e3bf
00000200: 7566 0bbe a7d2 c6bf fd0e e25d a31e eabf
00000210: f302 515e f6ff ef3f ac83 0c0d c8ca d8bf
00000220: 327d b755 ec69 dbbf aa29 e0e8 4575 b5bf
00000230: dd12 418e c11e ec3f 2d17 893d d185 bd3f
00000240: 10c9 1309 5fa2 b7bf f912 3ae2 57b4 e5bf
00000250: 2965 4f87 f711 d4bf 5364 9c62 888f ebbf
00000260: 64de 4c70 7d9b c23f e0b4 14c2 cb38 ec3f
00000270: 0434 1516 02e5 d8bf 0112 b29d 23f8 e83f
00000280: fc16 9bf0 d2d3 e3bf a375 a42e a5d2 d03f
00000290: 6aae aeb5 d5d5 e13f 063d 7f67 2315 ebbf
000002a0: 7e58 08a3 b321 c7bf bd06 0a32 17a1 ca3f
000002b0: 3dbf df71 45d1 e83f 9d5a ab3b 8b23 e6bf
000002c0: 9d5a f529 d7a7 c5bf 514c ce88 2138 db3f
000002d0: d62d 073b 0e89 edbf 4727 ab6f 1e3c ddbf
000002e0: 5abb d082 0d6b eabf 1876 e1cd 0d5d c8bf
000002f0: f62c 8a7a c8a8 d53f 34d5 74de 1eb9 cebf
00000300: cb87 d82e 644b ee3f 6a45 6392 1d2d ec3f
00000310: 3def 32ef ffff efbf 11d1 f5ab 66a9 973f
00000320: 9b8a 32eb a1ff ef3f ddea ca1d 597e ecbf
00000330: 4ab1 c6ce 0ef2 eabf c35b 2b6c 4ad2 acbf
00000340: add8 1b49 8fe8 ef3f 55c0 d574 1665 eb3f
00000350: 59aa c1b0 fef0 e6bf 3c0e 92d2 8b09 b03f
00000360: 4a2f 96b2 b263 d3bf 01f2 bab3 c6d9 dabf
00000370: e3c8 6c4f 6d29 d1bf 312e 34e4 f4f8 b33f
00000380: 42ba f340 5081 ebbf 0000 0000 0000 f0bf
00000390: e18b a4ea 6309 c7bf 5796 f55c 9417 b93f
000003a0: f69c caaf 1f4f ebbf 211e ce32 6d65 d0bf
000003b0: 9af9 2b0f 0658 d03f 21a7 4f52 2014 d03f
000003c0: fa0b 8628 6859 dbbf 060c b717 91e1 ed3f
000003d0: 9daf ba01 a637 d43f a450 8cd3 85f8 d9bf
000003e0: 83c8 6b9c f75e e23f f5ae 9804 bc75 e33f
000003f0: 8a2d 78c1 20db ea3f 15dc 3f6f 7952 e33f
00000400: e4c7 4866 7a43 dcbf 0b1e 349d c0c5 cd3f
00000410: 0000 0000 0000 f0bf 6896 7ab5 5fac dcbf
00000420: 7d5e df91 f626 df3f c8a6 3dd2 1f8d efbf
00000430: d04a 0356 1088 d7bf 6ae8 772f 17f9 efbf
00000440: 62f9 aae6 bff2 ef3f f2f5 045c 8e77 cdbf
00000450: 818f c783 8f53 e83f 6ae4 146e 1e70 ecbf
00000460: 6df9 318f c236 dd3f f42b 8fe7 810a df3f
00000470: b32b 0972 080b ee3f ef61 bb79 8d95 99bf
00000480: cd04 5155 4869 e0bf 299f 2cd0 94a6 acbf
00000490: a625 d6ff ffff efbf 4a34 202a 73a3 d53f
000004a0: 9b3c 559d bf3d e13f d5c4 ffff ffff ef3f
000004b0: 06a2 98d1 d615 e43f 4267 6efc 32ef e63f
000004c0: 6a68 3235 a3d6 d0bf 1d98 16a8 ad4e ca3f
000004d0: 0a75 300a 8b35 b13f af8e d255 036f e2bf
000004e0: 2816 e8ab 70fc e83f a660 3f30 662e ee3f
000004f0: 45c0 c292 0462 e6bf 3558 0b38 d12c df3f
00000500: 9a7c 6bdd e676 e63f fee7 3b59 0413 ee3f
00000510: 1f12 8a50 245e e1bf 2036 c710 9252 e3bf
00000520: df30 64f5 83e5 dabf 9639 49d0 f9ff efbf
00000530: bb99 182e 36c3 c13f 2b71 c56a a7a4 c83f
00000540: 0000 0000 0000 f0bf 63b0 fb48 42ff efbf
00000550: 9177 7278 f877 b33f fe87 747c 68a2 c1bf
00000560: 2240 1908 612c e93f 12de bdea 4890 e0bf
00000570: 4cf3 653e 577a dfbf a6a3 c6cb 1f06 b7bf
00000580: 1a7b 2789 dece d7bf e6db b0bd eaac efbf
00000590: a33f 17bd 999d e53f e5c6 cd37 efc3 d33f
000005a0: 0000 0000 0000 f0bf 4f16 adcf f342 dcbf
000005b0: 8f34 28a6 d82e 9bbf b8a9 1860 22b0 ebbf
000005c0: 7738 adff 8186 ef3f 0000 0000 0000 f0bf
000005d0: 1110 a7d8 b4cc d23f 1690 9560 f26e ea3f
000005e0: bd99 5774 3634 eebf ea63 549b cae1 d93f
000005f0: 38aa 8cdd 810c e1bf 4238 580d 66db e53f
00000600: 4832 61ef d98b e63f e787 baee 27ae 91bf
00000610: 44bb b717 5cfb ef3f b050 2bb2 95f1 efbf
00000620: e84f 8c07 c77f e1bf 9fb8 9e12 328c dd3f
00000630: 822a 0645 7cc3 e2bf 56c6 d72f 1a13 ea3f
00000640: 1a56 febb 75e1 ef3f 0000 0000 0000 f03f
00000650: 20aa 8df1 bfa5 e03f 2540 091c 8301 c23f
00000660: cfb0 91ea 3627 e53f e454 a1f6 feff ef3f
00000670: ddd5 ed6c eb0a c3bf dec3 554e 34be ec3f
00000680: 8946 2c29 c6c2 e33f 8e4a af56 dbf5 ca3f
00000690: 5282 a949 3820 e63f edef 0374 16ae d2bf
000006a0: 1c50 725d 7603 e3bf 9337 cefd ffff ef3f
000006b0: d5f4 3088 c946 ebbf 69a3 01e6 02b7 edbf
000006c0: a242 4dbc 62e9 efbf 7d89 a7a1 03ae e63f
000006d0: cd37 1ff4 dad0 e4bf fe27 f5a2 70e2 e63f
000006e0: 2917 4f71 c175 efbf 197a 0ba5 dfff ef3f
000006f0: be7b 305a e917 d03f 8c58 f136 4206 c2bf
00000700: 4e51 592e f2b3 dfbf 9ce7 8bb0 7093 d2bf
00000710: a65c d608 a5e2 e7bf 4d31 37bf 9db2 ebbf
00000720: 3561 e232 9608 e03f 3a41 4721 b2c4 dc3f
00000730: ed2d a1c8 9ff0 ef3f 8cf1 23ae f015 e6bf
00000740: 8754 0ec2 9ef9 e73f 8a9f 01b8 4339 b7bf
00000750: 7570 72f2 9396 e63f 3806 df63 d888 e63f
00000760: c3ec e018 f7ed ea3f 1e63 d19e ee26 e33f
00000770: b348 22f2 6db2 e2bf 2b08 6fac 4c9f e53f
00000780: 555b 90a2 ffbb cc3f 209f 17ad 3f88 e2bf
00000790: 0000 0000 0000 f0bf 96b3 7b12 6f20 d73f
000007a0: e258 807d 9285 ebbf db82 0b4f b770 a8bf
000007b0: c4a4 04f2 1c37 d63f 3f3c ea41 5746 ecbf
000007c0: 8298 27cb cedd ef3f 03e8 b154 7519 dcbf
000007d0: 34b9 e588 a48a bcbf 6879 8e76 77e2 d73f
000007e0: 0d40 792a e855 ea3f a062 f308 a92f e23f
000007f0: a006 ca79 b264 683f 2b5a 1201 0ffe efbf
