Example world7-1 flagpole glitch/best_ind_gen8879/W2.npy (npy, 560 bytes, 1 tensors)

array f8 [6, 9]
-0.028036086178224146 0.10944393309381023 -0.2695493406179753 0.7254442179187407 0.12102511716527856 0.06232168434232133 0.9754350499521038 -0.6509041837097208
0.4961598092066001 0.9999999975330904 -0.524527991658286 0.5739730740147642 -0.249609610520906 0.9194009654690716 -0.5541286695927425 0.038307522772612096
0.9385499318578407 0.6167281520214798 -0.5102010131263479 -0.008550981111487676 0.47433884591378117 -0.42810393677661235 -1.0 0.16831076105653733
-0.9999944807190982 -0.21613324835433378 0.013434884126809916 -0.5455144294634193 0.11656816785595328 -0.1997033146580705 0.46762864954155975 0.4151412346225805
0.7620142255462682 0.7596714103319887 0.4666998642690444 0.19003426744348134 0.5602304971554255 0.998249740136005 -0.05443322125952696 0.1349829130090527
-0.865207620307077 0.5906307268403007 -0.2593473942710732 -0.6760703496953319 -0.8308727226052539 0.05927253620295493 0.4785249990400827 -0.4275132634414138
-0.14581399957806582 -0.32019421307930995 0.6410125391240202 0.9983978493910455 -0.32300880192703846 -0.6750622884068501
00000000: 5826 f9e4 7db5 9cbf d42e 6281 8404 bc3f
00000010: 5234 a7e0 4b40 d1bf b310 e1ca d636 e73f
00000020: 322d 3888 80fb be3f 81ef 29b8 a0e8 af3f
00000030: 4053 dd90 c336 ef3f 479c bb02 35d4 e4bf
00000040: d271 8812 15c1 df3f 56f3 acfe ffff ef3f
00000050: e748 40ed eec8 e0bf 2cb2 b5c7 fc5d e23f
00000060: f72f fa2c 35f3 cfbf 3237 d392 bb6b ed3f
00000070: 80a8 350c 6cbb e1bf d48f ff2a 0b9d a33f
00000080: 30c2 dfdd 9908 ee3f 7e8d 6ead 3cbc e33f
00000090: 7c70 3813 9153 e0bf 06ca c741 2d83 81bf
000000a0: 4003 9b51 915b de3f 47a4 ef0d 0e66 dbbf
000000b0: 0000 0000 0000 f0bf d1be 26ff 348b c53f
000000c0: 17cf db6c f4ff efbf 444b a118 41aa cbbf
000000d0: 7701 9a9f bf83 8b3f d853 41ad da74 e1bf
000000e0: 4a2a b254 69d7 bd3f 9afa add2 e08f c9bf
000000f0: 8308 1db7 a0ed dd3f f533 7b8a ac91 da3f
00000100: 0ddb 39a8 6b62 e83f 77a0 e26a 3a4f e83f
00000110: e652 851b 69de dd3f 3e00 e5f9 0a53 c83f
00000120: d423 f081 68ed e13f 0dfd 6370 a9f1 ef3f
00000130: ac4e 40d2 abde abbf cf43 72be 1e47 c13f
00000140: 1301 2fe4 c7af ebbf 6f56 f968 72e6 e23f
00000150: e99c 2cd0 2599 d0bf 5393 3749 5ea2 e5bf
00000160: 264c 5764 8296 eabf 82d8 1549 f858 ae3f
00000170: 7e84 4c51 27a0 de3f 2093 4597 605c dbbf
00000180: d74d be7b 08aa c2bf 66d2 62de 0f7e d4bf
00000190: 82a2 7bba 2c83 e43f 3200 f10b e0f2 ef3f
000001a0: 8331 261c 2dac d4bf 090d 6f3a 1c9a e5bf
