Example world2-1/best_ind_gen2492/W1.npy (npy, 5888 bytes, 1 tensors)

array f8 [9, 80]
-0.3004129425569951 -0.9922772374841662 -0.34606345831888535 -0.6616818547356383 -0.333590102053629 0.439276175574378 0.9927472571501641 -0.26750486121334816
-0.7708915912082311 0.6149933102840758 -0.08721620648916113 0.7813854832857312 -0.908807607762612 -0.8149126440442257 -0.4741675405961795 1.0
-0.7325875757598206 -0.4443478329050628 -1.0 0.6794009198389915 -1.0 -0.4535286455473238 1.0 0.44142912142489366
0.5323063535692656 0.9531327771139619 0.0833516399287774 -0.40576953098483987 -0.21371657916548503 0.09964490438582059 0.47371037382400266 0.11511015881195967
-0.28208613796521487 -0.033190400904262965 0.09990038275696822 0.7895802341075389 -0.1453085166578864 0.26151413055485306 -0.2860317882723858 -0.12002697455747269
-0.9845504447267739 -0.14370820975908585 -0.5844058995501942 0.6760107191438163 0.09740284930732103 0.3596140606215036 -0.7433662665069893 0.19235454296533538
-0.09741466535172162 -0.23479312701801977 0.11352125382571225 -0.18333330267486206 0.5722095109364193 -0.1364396956284684 -0.70133573093135 0.26600508038316917
-0.3430616700906086 -0.9999988322820206 -0.5656734120315609 0.9999959833174864 -0.3895668342824965 0.8716759682288162 0.9280394151308398 -0.9685983921645288
-0.41038940000966423 0.19236448265946707 0.11856937214732229 -0.5955771038892569 0.09359224169756988 0.16204584617139853 0.11753313183494891 0.9999923627208179
-0.4492746166551202 -0.10919620651196438 -0.033082725658435626 -0.3478055894932343 0.3687118386866709 0.27682173948048666 0.4685737995010827 -0.4673140911471792
-0.21594851417911853 -1.0 -0.6427872735271151 -0.9338582065079682 -0.9999905418533905 -0.776729645655305 0.4295950052332597 0.30263806258295367
0.5782249396781847 -0.9995085676028198 0.9999944362281337 -0.702177461059187 -0.5144735646926801 0.47309900320497217 0.5511200561249179 0.6029080972395372
-0.9655824388431996 -0.3329172684753125 -0.01839457960640581 -0.467904515890932 0.008457858226721236 -0.6599640992474153 -0.04456329687851446 -0.27645184743710915
0.698474795086543 -0.7464124123866199 0.7787353155972022 0.21961228407293393 -0.03973046417221685 0.7961110459251242 0.01963425907195815 -0.8902391973559253
-0.4875573668849562 -0.04064456273681132 0.9329662287501245 0.7287112535269025 -0.3394600938526081 0.9985107466728672 -0.3169311702848038 -0.042752409832097715
-0.9309660579272196 0.8614393568606815 -1.0 -0.6762657823095468 -0.10050080326199855 -0.12159569402588313 0.9371366499269811 0.004363204824080859
-0.999336354661359 0.2781891437474915 0.4931453018366892 0.13189058706596374 0.08569550681266856 0.09886758057929707 -0.5099429427082276 -0.8856011894885261
1.0 -0.8549478539518475 0.8416741415334218 -0.6885315737567775 1.0 0.9999626444222581 -0.9999981724487876 -0.014276313124285542
-0.7417725370416153 0.601176370776104 0.40575785716877855 0.9999999999431568 0.8557916932507683 -0.9570597478207715 -0.9999991631222112 0.7112003069248654
-0.892925873973841 0.14433667057971805 0.5928136247571498 -0.9997442355086462 0.09729508910367235 -0.200528523380573 -0.4391734875313993 -0.677896991705709
-0.5172672060842762 0.27737042412464114 0.605580488018873 0.5623746665318612 -0.5326706282480923 -0.4633378877965788 0.37923708020548386 -0.2733992375979008
-0.9993872541367409 0.8154193876729612 -0.713143947066075 1.0 -0.9999998465091067 -0.8709823046884851 -0.8873843672732565 -0.48416481572109865
0.7066983102863353 0.4501053361890511 -0.15241319477835616 0.5672154091468905 0.33266293224542337 -0.6751898793644036 0.6503621678321749 -0.6969493696405961
0.6841864390465968 0.8637598793166477 -0.3559613352057364 0.5836408460124792 -0.999862567935613 0.9974483501797079 -0.11070726336727363 -0.8988898189970059
0.1003753988323134 -0.043630656004337826 -0.3384406906621705 0.4805510889301385 -0.22520856845397833 -0.09559439413393103 -0.449581863740846 0.6238557801928784
-0.7653489820401539 -0.390370986233409 -1.0 0.2014724786934802 -0.9999956951713472 0.5897111384693065 0.4606569005700319 -0.9999954467880529
-0.104792298314532 -0.07105482376173615 -1.0 -0.8286401390845007 -0.2907266093863112 0.7803744928962533 -0.9842761838367683 0.28805793308063055
0.999306354570715 -0.6601804639720303 -0.7737252446040299 0.5413017279332708 -0.11652131271407401 -0.1848714522021858 0.6424038541377459 0.999999999222799
-0.5713173359386273 0.7641586231551398 0.8355554099252441 0.48679624668843713 0.21465165443321654 0.9994834385433297 -0.5786532280324563 -0.8489475752242471
-0.7480800788546902 -0.7176071639984843 0.5331841372289416 0.8980437268558279 0.8716443743286867 -0.7080870172032014 0.030219347061961187 0.9999913544266861
0.32978811219233617 0.1976575546635569 -0.4760247591788441 -0.7799415242462836 0.03782727043783212 0.5988768003176277 0.9954344059170458 0.9426368567653574
0.9988202578499333 -0.49029330160724144 0.185803703405822 0.9103770283233558 -1.0 0.8466032295362467 0.482026938815052 -0.5684955991666096
00000000: 75f4 e434 f739 d3bf 38e9 7131 bcc0 efbf
00000010: 557f f458 e725 d6bf 2f47 ce6c 7f2c e5bf
00000020: a5bc a54c 8a59 d5bf 0540 00d2 191d dc3f
00000030: c2ea 54e5 95c4 ef3f 9cab 9bb5 cc1e d1bf
00000040: 2d06 a0d7 24ab e8bf 6fb9 5d73 06ae e33f
00000050: 6558 8d22 cd53 b6bf fc00 0921 1c01 e93f
00000060: 0749 36b1 f314 edbf f189 68ae c313 eabf
00000070: aadc ebcf c258 debf 0000 0000 0000 f03f
00000080: ee04 eb7f 5b71 e7bf c10b 98e4 3170 dcbf
00000090: 0000 0000 0000 f0bf cd95 72ff a6bd e53f
000000a0: 0000 0000 0000 f0bf 1532 1b03 9d06 ddbf
000000b0: 0000 0000 0000 f03f 5267 01ee 5f40 dc3f
000000c0: 680e 8155 a708 e13f 6a67 4e4f 1080 ee3f
000000d0: 9ae3 8f77 8856 b53f e7c2 52c4 20f8 d9bf
000000e0: fc7a 109b 105b cbbf 65d6 8c15 5482 b93f
000000f0: d366 d650 4551 de3f 43e4 88ff db77 bd3f
00000100: 70cb 4d04 b30d d2bf 8291 d90c 55fe a0bf
00000110: 408f cc4c 1293 b93f baea 61c4 3d44 e93f
00000120: 461d 702f 7899 c2bf ae32 8bc3 a5bc d03f
00000130: 45c3 0f46 584e d2bf 20b7 5c7a 16ba bebf
00000140: d6a3 2bef 6f81 efbf 617e 8ad6 0765 c2bf
00000150: 9c0a 4500 74b3 e2bf f0fa 4e3b e1a1 e53f
00000160: b9e9 4fa4 64ef b83f 8a45 63b1 ea03 d73f
00000170: c41b 730d a8c9 e7bf 54f6 a2db 129f c83f
00000180: 3120 d6e1 2af0 b8bf 9b19 ef80 b30d cebf
00000190: d314 9598 ba0f bd3f 39cb a035 7777 c7bf
000001a0: 8fd3 fd51 8a4f e23f 11dc 4c1f db76 c1bf
000001b0: 95b9 7ba1 5771 e6bf 2e32 342c 3a06 d13f
000001c0: 3438 63ef b8f4 d5bf 1e10 168d fdff efbf
000001d0: 9d8d 9c20 ff19 e2bf e15b 8f93 f7ff ef3f
000001e0: 6c5f 36bb a9ee d8bf 920f 0800 c5e4 eb3f
000001f0: 7e59 2cb7 7fb2 ed3f 33c1 290e c2fe eebf
00000200: 15a9 eae6 d143 dabf 7199 f73c 669f c83f
00000210: a514 aef7 8f5a be3f 916c eeb6 f70e e3bf
00000220: 9219 4041 a9f5 b73f 7920 e114 ebbd c43f
00000230: b574 6dbd a616 be3f 8357 c4fb efff ef3f
00000240: 373a 5d52 eac0 dcbf 28ef d057 48f4 bbbf
00000250: 61f2 8711 38f0 a0bf 0753 0f60 7242 d6bf
00000260: 76aa 338a f998 d73f 51fe 7887 72b7 d13f
00000270: b6a7 27f6 1cfd dd3f 69f9 9b5c 79e8 ddbf
00000280: 1472 026f 33a4 cbbf 0000 0000 0000 f0bf
00000290: d9af c29d b691 e4bf abb1 019b 2ae2 edbf
000002a0: 6c3a 322a ecff efbf e28a 3d21 f8da e8bf
000002b0: 7b1d 800c 7c7e db3f bc63 5409 6c5e d33f
000002c0: b0c7 b496 d180 e23f 1ba1 3d64 f9fb efbf
000002d0: 7004 f954 f4ff ef3f c799 e7dd 3c78 e6bf
000002e0: 0a5f e043 9176 e0bf 8746 a20a 4147 de3f
000002f0: 163d 2787 c6a2 e13f 9565 04ec 054b e33f
00000300: 018d 8d24 0de6 eebf f301 183b 844e d5bf
00000310: 882d 5557 07d6 92bf b7be 59c8 25f2 ddbf
00000320: 1fe3 d283 5a52 813f e9a7 d907 6d1e e5bf
00000330: d0eb 631d 00d1 a6bf 8850 ea16 63b1 d1bf
00000340: 9d43 3fd0 e759 e63f 8ded 9048 9ce2 e7bf
00000350: fb5d 1753 66eb e83f 8651 f25c 411c cc3f
00000360: 9594 8c28 8d57 a4bf ca72 47df bd79 e93f
00000370: a089 61d2 001b 943f 055a c8e9 d67c ecbf
00000380: f476 6cd0 2334 dfbf 87fd 6d37 5dcf a4bf
00000390: bb22 18fe dbda ed3f ba01 4443 9a51 e73f
000003a0: fe37 59d4 b6b9 d5bf a143 35cf ccf3 ef3f
000003b0: 0633 ddac 9948 d4bf 40ac 1bd4 a4e3 a5bf
000003c0: 6c78 8f54 79ca edbf 5a86 2645 e990 eb3f
000003d0: 0000 0000 0000 f0bf 288c 4d23 f8a3 e5bf
000003e0: 4365 3baf 6bba b9bf 82f3 2c39 e520 bfbf
000003f0: 6638 eaff 05fd ed3f b51f 67e0 26df 713f
00000400: 3c2e 1f3c 90fa efbf a0da 9fd6 d9cd d13f
00000410: e122 e44f b18f df3f 729d 0c6f cae1 c03f
00000420: bfaf 2c07 24f0 b53f 8c04 39c1 624f b93f
00000430: 3840 b8dc 7351 e0bf 84dc 444e d856 ecbf
00000440: 0000 0000 0000 f03f 3346 109a bb5b ebbf
00000450: 29cc f89b feee ea3f 898f f15d 7308 e6bf
00000460: 0000 0000 0000 f03f 237d e0a8 b1ff ef3f
00000470: 2246 d72a fcff efbf 7262 cf4f e63c 8dbf
00000480: 1c45 75c2 99bc e7bf 1290 733a d63c e33f
00000490: e8a2 a8cd eff7 d93f 0230 f8ff ffff ef3f
000004a0: 9c6a d642 a562 eb3f bfa9 a6c3 3ba0 eebf
000004b0: 7c64 b43e feff efbf fcb7 6425 27c2 e63f
000004c0: 2209 4f48 d992 ecbf e26f e0bf 9f79 c23f
000004d0: ca90 5e47 54f8 e23f 19f9 7b9f e7fd efbf
000004e0: 60fd c2b9 54e8 b83f 83d8 ea2c ebaa c9bf
000004f0: 8ced 8d1d 6b1b dcbf 87d9 2d08 55b1 e5bf
00000500: b89b adf4 738d e0bf 098d 1fe1 6fc0 d13f
00000510: 7f60 e454 ea60 e33f d24d 1b28 f9fe e13f
00000520: c9b0 fb45 a30b e1bf a460 c5f4 53a7 ddbf
00000530: f06f 3a9a 6b45 d83f 0fff 0e84 5f7f d1bf
00000540: 33cf 91fa fafa efbf 048d 5266 ea17 ea3f
00000550: 18a7 3f41 13d2 e6bf 0000 0000 0000 f03f
00000560: 4c5f 98ad ffff efbf 1b04 4148 16df ebbf
00000570: 0373 8de6 7365 ecbf d357 596c 8efc debf
00000580: 462f 5ac6 459d e63f c9f8 ab9c 86ce dc3f
00000590: 3da5 868b 4682 c3bf 4757 02ee a026 e23f
000005a0: c579 a577 594a d53f c4ba 4ece 279b e5bf
000005b0: a6a2 2c52 c4cf e43f a55f b2c3 684d e6bf
000005c0: 704c 82f5 dae4 e53f 8e61 28c2 eba3 eb3f
000005d0: 2b58 560d 12c8 d6bf c577 4791 2fad e23f
000005e0: ace5 b8c8 dffe efbf 7112 6fcd 18eb ef3f
000005f0: ce93 97ab 4f57 bcbf 8195 e994 b4c3 ecbf
00000600: 39c8 4ebf 33b2 b93f 4487 48e1 c156 a6bf
00000610: 31e6 8124 03a9 d5bf c7c6 c05a 59c1 de3f
00000620: ddf7 2466 a2d3 ccbf 8275 7ccc df78 b8bf
00000630: fd10 6902 f3c5 dcbf d22a ab65 a0f6 e33f
00000640: 9375 fc25 bd7d e8bf 2781 cb96 d6fb d8bf
00000650: 0000 0000 0000 f0bf bd2a 84a5 d9c9 c93f
00000660: e7da dcf8 f6ff efbf cf00 bae4 e9de e23f
00000670: 2d00 a814 677b dd3f a750 8373 f6ff efbf
00000680: 0333 2206 abd3 babf 739a 4720 a630 b2bf
00000690: 0000 0000 0000 f0bf 93aa 3053 3884 eabf
000006a0: fb08 d9c7 439b d2bf 5ce7 b3ed d3f8 e83f
000006b0: 77f0 79c4 307f efbf 8cd1 7b8a 8a6f d23f
000006c0: 521e f251 51fa ef3f aaf9 c6c7 3220 e5bf
000006d0: be3e b571 5bc2 e8bf e8bb 5700 5852 e13f
000006e0: 0cd9 643b 57d4 bdbf b311 9624 dea9 c7bf
000006f0: 3612 0b87 928e e43f ac2e 95ff ffff ef3f
00000700: e5d0 2f4b 3b48 e2bf fe0b edc8 fc73 e83f
00000710: 57fe f3b2 debc ea3f a6e9 d571 ab27 df3f
00000720: b456 e995 b479 cb3f c3fd 2db1 c4fb ef3f
00000730: b2f9 43c6 5384 e2bf 9b69 f31a 942a ebbf
00000740: 340a 2fa2 45f0 e7bf 29f6 974c a3f6 e6bf
00000750: f29d 042e d80f e13f dc28 a732 c6bc ec3f
00000760: ad7d 2fbe 82e4 eb3f a084 b31a a6a8 e6bf
00000770: 06b3 590d d2f1 9e3f 9a73 71de edff ef3f
00000780: 4271 1e99 3f1b d53f f22c 8bbe d74c c93f
00000790: 329a 308d 3077 debf 07c4 6ded 47f5 e8bf
000007a0: f7d8 da92 185e a33f 8e50 f6ad ff29 e33f
000007b0: c542 5741 99da ef3f 5ef7 f9c4 142a ee3f
000007c0: 2d87 c1e6 55f6 ef3f 3b76 f627 f760 dfbf
000007d0: b145 cd6e 6ac8 c73f 19b6 7501 cf21 ed3f
000007e0: 0000 0000 0000 f0bf 267a f1a7 5f17 eb3f
000007f0: e41a 8084 87d9 de3f 7ce5 caae 1d31 e2bf
