Example world2-1/best_ind_gen2492/W2.npy (npy, 560 bytes, 1 tensors)

array f8 [6, 9]
0	0x3fc9a0961db6b9a2	0.20021320772998502
1	0x3fee252f53d2d9e1	0.9420391690426265
2	0x3feff841cd1be2d7	0.9990548139604368
3	0xbfca79ce52b10e1e	-0.20684222257305945
4	0xbfe3f098d8b86457	-0.6231197579210271
5	0x3fe6a2b0500dae27	0.7073594630759928
6	0x3fc13611d3d95b91	0.1344625744265753
7	0xbfc9e7feef23ef59	-0.20239245106483386
8	0xbff0000000000000	-1.0
9	0xbfe6a4b6ac889f24	-0.7076066369818119
10	0x3fc7a76872447d43	0.18479638652295635
11	0x3fe1059d4cfea2c7	0.5319353584100889
12	0x3fc6af0c30718489	0.17721702924157892
13	0x3fdacc3ffa77a826	0.41871642551143606
14	0xbfd36c74196c93ad	-0.30349447710824046
15	0x3fee62ef880cdc51	0.9495771081191241
16	0x3fe04f869c999297	0.5097077425567303
17	0x3fabf7336038d7b3	0.05462036656938043
18	0x3fe016a02bea3691	0.5027619226181789
19	0xbfdb221416a19506	-0.423954984761011
20	0xbfd243d9a4c0dce5	-0.2853912457389483
21	0x3fe40670d97c10b4	0.6257862327334096
22	0x3fe9bf5de96d0a4e	0.8046102103329049
23	0x3fd657d98a0e0117	0.3491119239988775
24	0xbfeb653589af5c0b	-0.8561046303901788
25	0xbfef42713ada2a9e	-0.9768606328446656
26	0xbfea31425cffe3cf	-0.818513089790139
27	0x3fd5f10416592ed6	0.34283544714410874
28	0x3fc7887f61d3ba83	0.18385307575904983
29	0x3fe4e59517d43c3e	0.6530251946841259
30	0x3fd8ffbea2042c9b	0.3906094152632222
31	0x3fd09d3884875989	0.25959599439865905
32	0x3fba4f8691434be8	0.10277596517998655
33	0x3fe4516f5785722b	0.6349407872581357
34	0x3fcb88191c48d93b	0.21509088402826557
35	0x3fed11765b683ab7	0.9083816323562449
36	0x3fd6c099227949c9	0.35550526014881406
37	0x3fefcde785d5583f	0.9938848127301368
38	0x3fafc10192c53f31	0.0620193950331881
39	0x3fd15cb3bd618959	0.27128308767546155
40	0x3fefd71122a07e74	0.9950032879168718
41	0xbfe29724d5f12afd	-0.5809501818233397
42	0xbfe7729a4b23fe5a	-0.7327395885076371
43	0xbfeff266219d896f	-0.9983397156286581
44	0xbfec6c06fb524760	-0.8881869228955388
45	0x3fd343cb3c51f313	0.30101281061779267
46	0x3fe83a17de0b51ad	0.7570914589692187
47	0x3feff989e1c8b8cc	0.9992112550587762
48	0xbfece5c555870827	-0.9030481977899897
49	0x3fde26a52723a737	0.4711087114543377
50	0xbfd63473a541f139	-0.3469514001697181
51	0xbfd5f7c1e5f18dac	-0.34324691253115236
52	0x3fe0c13fbec899c3	0.5235899664156068
53	0xbfe2657a8a5d81d5	-0.5748875334211855
