Example world8-1/best_ind_gen8719/W1.npy (npy, 5888 bytes, 1 tensors)

array f8 [9, 80]
0	0x3ff0000000000000	1.0
1	0x3fe8f14a2a08cf40	0.7794543095574014
2	0xbfe373fc5c140bc3	-0.6079084204105744
3	0xbfdf30e6be3f47a2	-0.48735970095469316
4	0xbfd83e77b58ab469	-0.37881272057240395
5	0x3fefe0a6a571541d	0.9961732131292852
6	0x3fa25f3df0653864	0.03588288840784129
7	0x3fefdc18bdfea266	0.995617266734439
8	0xbfeff2bbe5f298c0	-0.9983806124844463
9	0xbfe0b850a9b54632	-0.5224994005786299
10	0xbfdf913192c64944	-0.49323691686108284
11	0x3fe37383c4d12454	0.6078509182053815
12	0xbfe29088af79fe6d	-0.5801433017040388
13	0xbfd5fccf83aa537b	-0.343555334643774
14	0xbfe15acd61abb2df	-0.5423342616682837
15	0xbfe35eeedd4765d2	-0.6053385087827172
16	0x3faad9e5ef2739b0	0.05244368118620757
17	0x3fcc745b77eec52e	0.22230094295586283
18	0x3fdd06c1f8676917	0.45353745706747034
19	0x3fd3aafa292c433b	0.3073106195525274
20	0x3fdd2963809d8879	0.45565116462797267
21	0xbfe13dcd404fd95e	-0.5387941604701998
22	0xbfdc0785c0fe14f2	-0.4379591355030491
23	0x3feffd437ca2d0d2	0.9996659693047383
24	0xbfdad5794a2f3859	-0.41927940601897756
25	0xbfcf04176c8c925b	-0.24231236267327713
26	0x3fdf0c2a143273c6	0.48511745426531794
27	0xbfbc7292cce89140	-0.11112325194023231
28	0xbfcb0377caca3713	-0.21104333307123876
29	0xbfe78cfb4e1c88bf	-0.735959675370644
30	0x3fadbf2b495d777a	0.05809912939615365
31	0x3fd15dbaa62e5e58	0.271345770155198
32	0xbfdae3743774ebe0	-0.4201326886720249
33	0x3feffb3d88ce368d	0.9994189903242884
34	0x3fc2f4e547d0cf7f	0.14809862143158267
35	0x3fe521dea6895c96	0.6603844883601535
36	0x3feb9d587a7ba767	0.8629572288748307
37	0x3fe46a0623b63c44	0.6379423806664666
38	0x3fe49e1381f9e84f	0.6442964113805462
39	0x3fd548da67c74aed	0.33257160315149187
40	0xbfb30b3a0e577e7c	-0.07439005708828889
41	0xbfe82ff1e6e7f772	-0.7558526525387903
42	0xbfefd1a081b57b84	-0.9943392308594956
43	0x3fe5aa53330161e1	0.6770416256140913
44	0xbfc7aa77e02d30c6	-0.18488977857703598
45	0xbfe392749fd2f917	-0.611627876430961
46	0x3fe596ec92719233	0.6746733532168662
47	0xbfa1f287da58b4da	-0.03505348720896402
48	0xbfeff0047e96649a	-0.9980490181361745
49	0xbfc378b98b258d19	-0.152121727888791
50	0x3fc4f2ebd072fb4c	0.16366336515599256
51	0xbfae0433a1bb069f	-0.0586258063244831
52	0xbfb8d516a15ea7a9	-0.09700147094431934
53	0x3f80a9070bb4c8c9	0.008134894413704423
54	0x3fd8da81dbb0ae38	0.388336624661608
55	0x3fdd3be2bd3c9816	0.45678013305803356
56	0xbfefde4d5fffb6b9	-0.9958865046480333
57	0x3fcf9a84fca7a598	0.24690306030906295
58	0xbfe81a568437637c	-0.7532150823927704
59	0xbfe40c7c1b763b48	-0.6265240227092841
60	0xbfd793f381b2dcd9	-0.36840522447478247
61	0xbfe4319b1ddd6668	-0.631055410699628
62	0xbfb7e4f2476a7ee6	-0.09333719485811862
63	0xbfdd20e35640635c	-0.4551323263454401
64	0x3ff0000000000000	1.0
65	0xbfe40545bbbc6d26	-0.6256436030120411
66	0xbfe1386b634ff5a1	-0.5381371440595794
67	0x3fd1cec361a4a71d	0.2782448247477179
68	0xbff0000000000000	-1.0
69	0x3fd1d7fb8bebb7dd	0.27880753196848024
70	0x3feddd3c4cd29d3f	0.9332562923854438
71	0x3fa67b6d7f1e8d64	0.04391042877912346
72	0x3fee0ca58433436b	0.9390437681232532
73	0xbfe64f283b78197c	-0.6971627389437312
74	0xbfe6244d24b6af7a	-0.6919313160956186
75	0xbfccf0aab8ab58c4	-0.2260945703225784
76	0xbfed9dab399f128d	-0.9254966855447307
77	0x3fe68a881664c0ee	0.7044105946897881
78	0x3fe64d369f91ba58	0.6969254604899318
79	0x3fc62b6689bb52f2	0.17319947934324592
80	0x3fc091fbe0925188	0.12945507493408237
81	0xbfeff4ab13ead3ad	-0.9986167325029008
82	0xbfc6b85420e243b6	-0.17750026326805618
83	0x3fc9fe7e2081dbb4	0.2030790003516053
84	0xbfd67ab5fac242fc	-0.35123967636268083
85	0x3fef5778ad0a7003	0.9794276599600383
86	0x3feffd74204590b2	0.9996891622836499
87	0x3fc1081c859581a4	0.1330600406900092
88	0xbfd9a035f85a29cb	-0.4004034924807029
89	0xbfe6b4ef165e19e0	-0.7095866619936793
90	0x3fe9e8827ef706a3	0.8096325378212054
91	0x3fd6d6166e0d651e	0.35681687114045413
92	0xbfd44ab516822a61	-0.3170597762879535
93	0x3fefdc723cd19031	0.9956599414695174
94	0x3feb2504e1024ef6	0.8482689280230875
95	0xbfe44b7533972c31	-0.634211159479838
96	0xbff0000000000000	-1.0
97	0xbfc933feee1425f8	-0.19689928650795685
98	0x3fe50df55e5d2603	0.6579539149326482
99	0x3fb2f477b85facaa	0.07404278041183213
100	0xbfd50f736aff0f0f	-0.3290680451284382
101	0x3fe6619ea0e82380	0.6994164602957511
102	0x3fcd7c7d75e4bbcc	0.23036163574712842
103	0xbfe96d5e6c6b5819	-0.7946006887020786
104	0xbfefffe1db1ec203	-0.9999856261911763
105	0x3fdf26aa1784b85a	0.4867348889991995
106	0xbfef3de982a37e4c	-0.9763076354538014
107	0x3fed5a6e1a438c2e	0.9172888291326495
108	0x3fe117947e0e466f	0.5341284238840681
109	0x3fd8e2a4b3ecda60	0.3888332135278798
110	0x3fefec067bafb8ff	0.9975616851568531
111	0x3fefffe64164fdda	0.9999877240406321
112	0x3fda2fdb427c0f54	0.40917092793119036
113	0xbfe8c155cb1b96d2	-0.77360047978865
114	0xbfee96efea8b6296	-0.9559249478289356
115	0xbfef1e8a0eb95345	-0.9724779403282829
116	0x3fd2ef3b0d2a0d85	0.2958514813000977
117	0xbfe0410a9975ff69	-0.5079396245273361
118	0xbfbcc3d909f63928	-0.11236340039451831
119	0xbfeda9d43a8c32f1	-0.9269810813435396
120	0x3ff0000000000000	1.0
121	0x3fdf8c552de5cf28	0.4929402301997805
122	0x3fc0c905852dc38a	0.13113469126576788
123	0xbfe8cab0c22127fd	-0.7747424880592458
124	0x3f749c91eca8676a	0.005032129304277303
125	0x3feffae977e32ef0	0.9993789044906105
126	0xbfe6f2bfc30766bc	-0.7171324547918725
127	0x3fe7a7c62a584660	0.7392302348182049
128	0x3fab5103a5b95e06	0.053352464656821794
129	0xbf7c28d38fc65aa5	-0.006874872601108227
130	0xbfdfe06f98952104	-0.49807348156583964
131	0x3fefffffffffffff	0.9999999999999999
132	0x3fcd2f0fd4c933de	0.22799871339739658
133	0xbfefc5ac3edcf8ab	-0.9928799846454884
134	0x3fd6a6dbe45d559c	0.35393426228741887
135	0xbfe38eef7031fc3a	-0.6111981574357579
136	0xbfeff5fb19a8b719	-0.9987769604829025
137	0xbfed1b17b5bf7c36	-0.9095572042241489
138	0x3fed60941dc45a45	0.9180393773447767
139	0xbfedf1b1b208368d	-0.9357536771000966
140	0x3fd6c94fee0be777	0.35603712317207886
141	0xbfd3e8b147917644	-0.31107742299159136
142	0xbfd903aec94d33a8	-0.3908497777782096
143	0x3fe3d54fd7bdd737	0.6197890485479779
144	0xbf9b8dc87c787d3b	-0.026908047291837916
145	0xbfed84c1054b6baa	-0.9224553206835158
146	0x3fcdcdaff93772b9	0.2328395811918165
147	0x3fcdd46696ac8dba	0.23304445607310048
148	0x3fefffffffffffff	0.9999999999999999
149	0x3fe6b69b8a19ccd4	0.7097909638672726
150	0xbfd5e2d8cf77cad9	-0.341970636945161
151	0xbfeffffffff97912	-0.9999999999525093
152	0x3feec6f69ba70ed3	0.9617875137414224
153	0x3fb3d4cce7ad5cde	0.07746582657033538
154	0xbfe70dc2f3bed676	-0.72042987448249
155	0xbfe884e4203161e9	-0.7662220600860198
156	0x3fefcfd25401c0b5	0.9941188469656682
157	0x3f9b0e62764dc60b	0.026422060461703405
158	0xbfe8a1696f3e8d22	-0.7697035954228435
159	0xbfe9054d54d6f878	-0.781897226049991
160	0xbfeff2a180e86edf	-0.9983680265172231
161	0x3fd8d45a02715f06	0.38796091307220626
162	0xbfeaed5c80ec1864	-0.841474773217453
163	0xbfeb009a88719a46	-0.8438236870686715
164	0x3fd261f3fc7b4269	0.2872285810126756
165	0xbfeffce916f30bfb	-0.9996228645544528
166	0xbfec42bf3e0087be	-0.8831478320100741
167	0xbfea1ad5e9c1d022	-0.8157758298461923
168	0xbfe5352dc116b864	-0.6627415438904447
169	0xbfa45e8a4643519d	-0.03978378398611258
170	0xbfe98c84de665506	-0.7984032005066701
171	0xbfe45dc210754a20	-0.6364450761269076
172	0xbfefa4e3d0a7d4a5	-0.9888781619362318
173	0x3fefe723c10bb626	0.9969652910637634
174	0x3fe3e187bc668dcf	0.6212805442523236
175	0x3fcaf50d0b4cd268	0.21060336162340154
176	0x3fe0653f29a81d1c	0.5123592198951061
177	0x3feda6ef45fdaf2d	0.9266277663241219
178	0xbfefeaf3b33e8abe	-0.9974306584229777
179	0x3fe6b5a0d494d5f2	0.7096714164715066
180	0x3fe76fea5e32bc40	0.7324115600403118
181	0xbfd1439c0394c215	-0.2697515521022365
182	0x3fcb541ad4bdb522	0.21350417506929725
183	0xbff0000000000000	-1.0
184	0x3fba3e4bc4164d58	0.10251306092532297
185	0xbfe21fd1c6a4c29f	-0.5663842086560925
186	0x3fa07ebf9dbfa207	0.03221701431886364
187	0xbfd04453e985b7e4	-0.25417039685168974
188	0x3fef4f7c183151eb	0.9784527275574509
189	0x3fdf52d609e94669	0.48943091361898056
190	0x3feff26f3965aea6	0.9983440514601696
191	0xbfa7f88c6078791d	-0.046818148399539995
192	0xbfe09b2f9128a78f	-0.5189435801632828
193	0x3febe6162a6763eb	0.8718367412758402
194	0x3fdbac0391c1962d	0.43237389787677466
195	0x3fd72978d0264d72	0.36190624549018147
196	0x3fe6fddf9eabe31c	0.7184904192973565
197	0xbfd1674066b11e7a	-0.27192697552207046
198	0xbfe304f18b057e69	-0.5943534579527753
199	0xbfe4779d3cec1614	-0.6396013440978003
200	0xbfe1a86aa93e9c85	-0.5518086724813577
201	0x3feb5c19effe44d1	0.8549928367011949
202	0x3fe58d6fae170a7d	0.6735151672549616
203	0x3fd0084b1b6f7839	0.25050618819466625
204	0xbfe34fbf179055e7	-0.6034846744757346
205	0x3fe57f20bc50d9c8	0.6717685392421169
206	0x3fe76fed717d1d1a	0.7324130264832178
207	0xbfeeb327af78b620	-0.9593695094278623
208	0x3fc740b02367436f	0.18166162232094105
209	0xbfd3f7417935d723	-0.3119662936872933
210	0xbfdd86c847a639d0	-0.46135146138194916
211	0x3fe71869a6187840	0.7217300647787468
212	0xbfcdf720122b7d9e	-0.2341041649551529
213	0x3fd66f0abd564b12	0.3505274628634406
214	0xbfed148178e07139	-0.9087531433938586
215	0x3fd48101c8ce07aa	0.32037396058887657
216	0xbfe3bd590dda5f3a	-0.6168637533728323
217	0x3fefefba03f63bea	0.9980135037784497
218	0x3fd19fc8151c9309	0.2753772932212973
219	0xbfbfa9251a8aaeab	-0.12367469690314674
220	0xbfed6d4dd75dfc06	-0.9195927816762157
221	0x3fceb038a9aee715	0.2397528484851185
222	0xbfe4f4fe4a2b8220	-0.6549064110404892
223	0x3fdbada68963102c	0.4324737874669633
224	0xbfef41519445cc5a	-0.9767234703016456
225	0xbfd41683d263ddb9	-0.31387420221241374
226	0xbfe4c6ed7308eec0	-0.6492831465506796
227	0xbff0000000000000	-1.0
228	0xbfd4e126699a521c	-0.3262420684125418
229	0x3fa401ea802eb61c	0.039077118060373034
230	0x3feba95a0daf48b1	0.8644228236464838
231	0xbfbdb5a30c4c07b5	-0.11605280924052759
232	0x3fe837e02554fd24	0.7568207482471832
233	0xbfe1737206a38bfe	-0.545342457739366
234	0xbfedac39431f721e	-0.9272733984940407
235	0xbfea7fe8e9c710c2	-0.8281139913529147
236	0x3fcd43e99e420640	0.22863502719342144
237	0xbfea7fd667bc3f06	-0.8281051660614771
238	0xbfeffc32b973cd57	-0.999535906039834
239	0xbfc88d91982d9477	-0.19182033472603496
240	0x3fb82774f585bb72	0.09435206407736788
241	0xbfeffff92b21b6dd	-0.9999967424789379
242	0xbfad9cb17c49dc38	-0.05783610002702527
243	0xbfb238b1ae40afc8	-0.0711775827809894
244	0x3fddd6b4bbbba085	0.4662296136216429
245	0x3fefdf73308f8a78	0.996026606412058
246	0x3fdcd3025232fe4b	0.450378971359872
247	0xbfe43625a97a6d95	-0.6316097555276651
248	0xbfda09823fb7c9a1	-0.40683037016347084
249	0xbfecbe6cb3e7fa78	-0.8982451928894326
250	0x3fec8ac0a2f5659c	0.8919375593933867
251	0xbfefec0de54161f8	-0.9975652196545175
252	0x3fd19de8df739e56	0.27526304074715335
253	0x3fd579b01a20c556	0.33555223990977845
254	0xbfea895bb156c198	-0.8292673553133225
255	0xbfedad59ff81fe5d	-0.9274110784899211
