Example world8-1/best_ind_gen8719/W2.npy (npy, 560 bytes, 1 tensors)

array f8 [6, 9]
0	0x3fefd9f6af53ffbb	0.9953568863274919
1	0x3fda8d615ad49324	0.41487916822579707
2	0xbfdfa67ec127ed1f	-0.49453705656897456
3	0x3fbfaccf6a2eeeef	0.12373062460295235
4	0xbfefed4f7bb2c418	-0.9977185646040452
5	0x3fb4579462d0f1ba	0.07946135914330102
6	0x3fdb7fd8a8215f50	0.42967811984043625
7	0x3fd0e3851dbf943a	0.26388671784508555
8	0x3fe719e21fcea5bc	0.7219095822558113
9	0xbfee0da27db89783	-0.939164395855855
10	0xbfe26e60b47e75eb	-0.5759738469384365
11	0xbfe233bdd9a59699	-0.568816113559211
12	0xbfeb32f8174fb1e9	-0.84997181466093
13	0xbfea17882ece36f8	-0.8153725542231021
14	0x3fb6e0296e528f52	0.08935793822689433
15	0xbfdcd8c336b4b410	-0.45073013632173886
16	0x3fc5f4de2e4c0c38	0.1715352750835295
17	0xbfb71816ce3a1de8	-0.09021132025565459
18	0x3fef9d67be694d1a	0.9879645079585402
19	0xbfc96fa0e56add2b	-0.1987191314890223
20	0xbfeffee8dd0e5033	-0.9998668973444239
21	0xbfe3792f36ef0877	-0.6085430214809681
22	0xbfd79c88b4080c9a	-0.36892907696910415
23	0x3fe91ebe695887eb	0.7850029046569466
24	0xbfe2db0732af6568	-0.5892368307060396
25	0xbfd85e335118a3be	-0.38074953956180113
26	0xbfeb83559359f9ed	-0.8597820165594477
27	0x3feeac0cd3e7ce24	0.95850221050063
28	0x3fe14910dd38ed8b	0.5401691742658142
29	0x3fe26aa8b6bee8c5	0.5755199021580429
30	0xbfc65c04e33a441c	-0.17468319983575575
31	0xbfd01a17965e79dc	-0.25159253773190726
32	0x3feffea271867e59	0.9998333184521001
33	0x3fe9a2860e949992	0.8010893139624378
34	0x3fecf93813a30793	0.9054222472698136
35	0x3fe5f07f9125ec87	0.6856077036785714
36	0x3fc6609e68402c2b	0.17482357111325206
37	0x3fefffff5819cf76	0.9999996872634103
38	0xbfd4d25e8de71560	-0.32533992631609543
39	0xbfb788ef60902851	-0.09193321330545358
40	0xbfd3eb67059319e5	-0.3112428240241612
41	0x3fdb721fa3ce5337	0.428840551344638
42	0xbfda183985e4e585	-0.40772855830763205
43	0x3fd60a675b3e8837	0.34438499365399217
44	0x3fe2f1a13df6ed85	0.5919958315129611
45	0xbfe3b0ecd108295f	-0.6153472979215556
46	0x3ff0000000000000	1.0
47	0x3fe82da8c9345ac6	0.7555736474776829
48	0x3fc7012adcbf06d6	0.1797231271612449
49	0x3fc53ef2550f6f53	0.16598347810110656
50	0xbfb6a4d5aa556edc	-0.08845267685449748
51	0x3fc71829bb1ead5a	0.18042489659033373
52	0xbfea1181beeb2cb8	-0.8146370629196076
53	0xbfebd3ab8e69a3f3	-0.8695886403557992
