Example world6-1/best_ind_gen9726/W1.npy (npy, 5888 bytes, 1 tensors)

array f8 [9, 80]
00000000: 0000 0000 0000 f03f 4214 ff96 6e72 e6bf
00000010: 88b0 533b f1ff ef3f f40f c584 8cf7 e83f
00000020: ef44 d865 32bb d2bf 1887 cf95 82a9 c4bf
00000030: f42a 89c4 e98a e4bf bc93 7a6b f9e3 e9bf
00000040: 199b a0b8 965d ecbf bde3 cff2 e06f c6bf
00000050: 34c6 56cb 56e5 d03f 46ae a269 df27 c63f
00000060: f5d0 6361 98fb d0bf 9c19 e8e1 5282 d9bf
00000070: 4b45 426d 3c1f e03f 2287 75d4 3762 e1bf
00000080: 2b00 1359 51ae ecbf e124 32a9 4df1 ebbf
00000090: cd5b 931c f197 e6bf 868d b1fc b2a4 edbf
000000a0: 32e1 f30e f742 e0bf 2fe1 c78a 5715 eb3f
000000b0: 7387 6ea4 a5f8 e63f 9ef7 5824 b5f4 e53f
000000c0: 1464 168e 7040 ee3f b04c 50bb ddf3 bc3f
000000d0: 6777 518d 0195 e8bf b4bc 22c5 cae6 e13f
000000e0: dc37 3f6b 5964 e8bf 8b14 f892 b0cf d33f
000000f0: f7c2 3f32 27db d53f a855 1534 c3e7 de3f
00000100: d905 a487 03f3 d93f 728d 216f 8f6c c2bf
00000110: 0000 0000 0000 f0bf ca29 09e5 4cb6 c53f
00000120: 4caf 9d1a 5a4c e93f 07f9 0197 2feb cbbf
00000130: 207b a6e0 a8f9 ef3f 4b14 c81d 4af1 bd3f
00000140: 2142 d935 3b97 cbbf 1487 130f 87e9 d9bf
00000150: d704 d877 54e7 e53f bec6 6dc9 ca25 e2bf
00000160: b081 ccdb 03ad ecbf ec6f f2fe 3aed c2bf
00000170: 25c3 fddb d102 eb3f c52e c84e 3573 e1bf
00000180: f0ab ae91 2896 d13f ac29 96dc aea0 eabf
00000190: e2ac 971c 1e78 753f 55cf 099a c44f df3f
000001a0: 66d5 979f ddb9 e6bf f633 cfdd 9ba0 dc3f
000001b0: 21d4 923e 4f9f ed3f fa4e 6ce2 59d8 93bf
000001c0: ac04 0cfa 5d3c d8bf 6852 b54a 52aa ce3f
000001d0: 22cf 3dd1 1696 e53f 07cc 0afc 842c ba3f
000001e0: e5d3 51b6 5744 b33f 79cd 2c06 7022 e53f
000001f0: be69 759f d640 cf3f 2644 626b 2863 cb3f
00000200: c1bb c6c9 bffe ef3f c0b5 37ef 4e44 e73f
00000210: 8ac7 e977 b17c ce3f 8bd2 0981 8b81 ecbf
00000220: 40c7 6d76 4d42 e53f 5868 33b8 c9ef d13f
00000230: 1015 071d 2c21 e2bf 99db abd0 580e e23f
00000240: 25ff 4c4e c201 d23f 5f11 69ed 61e2 eebf
00000250: 293e b8df 4496 eebf 43f0 bb6a e06a e63f
00000260: db16 1a47 aaf5 e4bf 30a3 3dab 54e3 e7bf
00000270: ce72 6e42 a369 c53f 8e46 93e3 58b7 ef3f
00000280: 4a76 f52c b1ad dcbf e12b 3ca6 1358 c7bf
00000290: 5c11 9a02 58c7 ef3f 8425 e7aa 7f5e ecbf
000002a0: 4af7 ee25 2ee5 ebbf 5877 ca5a ffff efbf
000002b0: 86a9 dbba 1da9 c73f d21c 47e1 7250 c33f
000002c0: bfef 3699 5add ecbf 3c82 7e8a 06dd d13f
000002d0: f6f2 039d 8761 e2bf ccf4 67f9 b039 d7bf
000002e0: 2e1d d063 07e2 e9bf 5baf b0d1 07e2 db3f
000002f0: 3802 6dab 98a7 ccbf 9b80 3829 4c31 c4bf
00000300: cd23 88de 66b0 df3f 65e7 68cc ac0d dd3f
00000310: 8c32 124f 8384 dabf 8610 bfe9 d900 de3f
00000320: 2eec 7881 74c6 e4bf fc43 44b1 8d23 e4bf
00000330: 6515 bdfe 70ca e8bf 2873 2a9c 6284 d03f
00000340: dc73 4e92 7cec cdbf 0313 e4f1 2efd d63f
00000350: 5bef 6dbf 27f1 ef3f 8fdf c09a dbb9 d63f
00000360: 6f52 01f8 2abf b2bf e575 92c8 e76f a0bf
00000370: 234d ae0a a6cc da3f 1716 031e 53f3 ef3f
00000380: d66c 0353 ad56 ebbf 2ac4 db8f 20c1 d43f
00000390: 4eec 0c78 556c ec3f bf0d 15ec d028 dcbf
000003a0: 0000 0000 0000 f03f 58f2 9946 d42c e33f
000003b0: bc15 ef16 a035 d3bf 0000 0000 0000 f0bf
000003c0: f30f 18b5 9520 e43f d91d 4ec8 9974 c43f
000003d0: 684d 9012 a5ce 973f bd0b fd76 2813 cf3f
000003e0: 115e 51fe 02dc ef3f 8387 7b70 3876 e93f
000003f0: 25a2 4a28 d667 dabf 7a9b 234a be7c 92bf
00000400: f427 d8f5 4211 e4bf 3535 cb46 7e32 e83f
00000410: 050f bb05 4302 e03f 7540 2919 ce6f e2bf
00000420: 97a3 eee7 e0eb e6bf 4f90 bd78 217d ddbf
00000430: 50cb e78b 9e12 ea3f 41e5 4721 70fc dfbf
00000440: c255 1c27 bfc1 ec3f cbbb dddb 9ccb e6bf
00000450: d545 0d79 c69f e63f 4f8c 9dd3 f69f e43f
00000460: 04b5 b5bf a35f debf 4586 e22a bbea ef3f
00000470: e903 1620 0403 ed3f 7dbe be4a a050 d63f
00000480: 36a7 f4b3 7753 cb3f 2fa1 e3db 1e69 e0bf
00000490: 1db4 b134 ef4c ec3f d548 5adb 4e7d e03f
000004a0: 157e f52f 41e5 e23f b3af 2cf8 ffff ef3f
000004b0: 10b4 f864 e51a d6bf c098 8a3c 5eb5 ad3f
000004c0: 9e59 8ca8 701b ed3f 0000 0000 0000 f03f
000004d0: c39d da12 79c2 dd3f 0f8f ff7f 590d ed3f
000004e0: b170 c008 6df5 efbf feb0 d329 4a1c ec3f
000004f0: 9e95 b716 72d6 d8bf b18f 4e78 b8e0 e4bf
00000500: e21a 40aa edbe e5bf 9755 7212 573d b1bf
00000510: dc45 cb08 06f6 cd3f 0a0d e649 f8ff efbf
00000520: dcfc 1376 9560 dcbf 380c ad7a 3c46 eabf
00000530: 002f e431 8d7d ddbf 8131 652a 87b5 ca3f
00000540: 2712 5b39 dfef cc3f b85f 029a e7a4 ed3f
00000550: f539 a753 8b78 e63f 31cc 7675 66fd efbf
00000560: 370f 0601 31ef b33f fdac 6abc 81df eb3f
00000570: f281 0f18 d9fc e63f d69c 2081 83f8 e8bf
00000580: 3b90 d681 54aa b7bf ede2 7028 6d36 d23f
00000590: cff8 95c0 cfde da3f 840c c150 e1bf b2bf
000005a0: 64da 2cf0 b93f b0bf 5afc 7647 ac19 c13f
000005b0: 5f06 f758 3372 e0bf 76a2 3e93 eef0 d03f
000005c0: e59f 6390 e7ff ef3f 9f81 bd45 0422 df3f
000005d0: c9c4 5717 7181 d3bf e21b 9bde 871d ee3f
000005e0: aea7 e44e ae76 e0bf 70ce 1569 511d b33f
000005f0: 3c7e 6983 94ed c73f fd6b b55d dc64 eebf
00000600: 7ff4 17ec be45 e2bf 3dee d2f8 f3f3 ec3f
00000610: 0000 0000 0000 f0bf 4260 fe56 e79e d5bf
00000620: e638 e2dc 26d6 933f da7d febb 83fa edbf
00000630: 94c2 d9fa 9d08 eabf 0f00 d5be 54bc ef3f
00000640: 7638 29cd f816 cdbf 65aa 4409 7282 e8bf
00000650: 56fa 20e8 d8a8 e5bf be39 bbb3 47c7 df3f
00000660: 0e25 8840 73ba ddbf bb8a 1fd7 0fff ddbf
00000670: 1aa0 be3e a76b c9bf 306f f7a2 95d7 ecbf
00000680: 69bb f5e2 82e6 c93f 7b5d c410 4463 eb3f
00000690: ed88 b255 7b66 ef3f d6f2 e062 5bf6 d5bf
000006a0: 4356 72ee 919e e33f f111 2e06 5a31 d5bf
000006b0: df69 1b4e 6d08 c53f 8abc 1988 f67a ef3f
000006c0: d2f4 2963 b41d ccbf 7789 6a24 61d6 efbf
000006d0: c91c 72f5 1203 c63f 59e5 1138 9f85 c2bf
000006e0: 405c 5932 68dc d63f 93db 1fad c943 d7bf
000006f0: d38c a600 1f28 d43f ff7b 9622 817a d23f
00000700: 7868 0c76 1a05 c9bf a643 82d4 463e c83f
00000710: 5d37 073e fa16 e3bf d596 347b 4cb2 e5bf
00000720: 5703 8660 82c6 d6bf ef4b 8590 09f2 c33f
00000730: d399 cf41 e9ff ef3f 7167 79c2 c15b ec3f
00000740: ed3a f33f ffde e5bf 03cb 63da 47ae c5bf
00000750: cc4d 5bb1 fca3 c6bf b92c 105c cfaa eebf
00000760: 48ad f859 d79f de3f 85d3 9bcb 7df8 66bf
00000770: a68d 0bb3 149e cbbf 445b 476b 050a a5bf
00000780: 74e7 6db4 bcc1 e4bf 1799 573c 2308 de3f
00000790: 90f1 a550 d4f0 ef3f 940f e952 3b05 c9bf
000007a0: 870d 6529 c296 eebf 72a9 258f 158b c4bf
000007b0: 4fe6 934e 2bd7 dd3f f92b 5152 f4ec efbf
000007c0: d994 8a87 0c2e e8bf 5afb 71a2 9ed5 d1bf
000007d0: 913b ce49 623c cebf 068c d5fd 6895 dd3f
000007e0: 0c57 e25b f985 e3bf 9d49 ad28 847a e5bf
000007f0: 2dc9 3898 c4dd df3f 966f d2f7 5564 debf
1.0 -0.7014687489651197 0.9999929579476126 0.7802183716926252 -0.29267558999806814 -0.16142303767178912 -0.6419571722593376 -0.8090788935847892
-0.8864244085314993 -0.1752892671209149 0.2639977441532182 0.17309181840879456 -0.26535615454419254 -0.39857933102794063 0.5038129934274961 -0.5432395124046006
-0.8962790240984807 -0.8732059769255579 -0.706047588168866 -0.9263548789426046 -0.5081744472545664 0.8463552198946099 0.717852421909113 0.6861215314781821
0.9453661704202454 0.11309610198104525 -0.7681892166253704 0.5594228601747973 -0.762249669520084 0.30955137588927845 0.341501044341427 0.4828956612230635
0.4054573845497465 -0.14393799711534033 -1.0 0.1696258657778585 0.7905703086703197 -0.2181148040144267 0.9992260348988999 0.11696303584183558
-0.2155527127201973 -0.4048783919553085 0.6844885197353062 -0.56711329785886 -0.8961200039812436 -0.1478646988733766 0.8440942093567158 -0.5453135050497272
0.2747899458578891 -0.8321146305400382 0.005241506217753074 0.48924365084461857 -0.7101886860897764 0.44730278645584975 0.9256969663753162 -0.01938000149227912
-0.37868451517722224 0.23957279823175104 0.6745714270350371 0.10224181321500235 0.07526157570994448 0.6604538078885717 0.24416621004168165 0.21396355861045996
0.9998473111098677 0.7270884201258738 0.23818033557068602 -0.8908135910301821 0.6643435776770517 0.2802604960285229 -0.5665493552157006 0.564251334725543
0.28135736128386873 -0.9651345860407153 -0.955843388512169 0.700546463456256 -0.6549884213170246 -0.7465003342195811 0.1672863077518713 0.9911312527494418
-0.44810132399093006 -0.1823753892607263 0.993083958703703 -0.8865354860255796 -0.8717261067283542 -0.9999996922740406 0.18484851478508463 0.15089260101215146
-0.9020207397911618 0.279115329025476 -0.5744054857928791 -0.36289619785368354 -0.8088414144012057 0.435670809531748 -0.22386463518525246 -0.15775444042902084
0.4951417134439538 0.4539596553982988 -0.41433794709954763 0.4688019545249137 -0.6492254761464034 -0.6293400251616954 -0.7747120833743507 0.25808015108650517
-0.23377949851865665 0.3592030870643585 0.9981878985267757 0.3550938617004186 -0.07322948984922005 -0.03210377047910721 0.4187407593064611 0.998452719323441
-0.8543306943278377 0.32428754852941444 0.8882243485198928 -0.43999121718317363 1.0 0.5992223147328088 -0.3001480316127887 -1.0
0.6289776360504206 0.15980837135815198 0.02324922490886419 0.24277215776427666 0.9956068961282104 0.7956812092709104 -0.41258768019409536 -0.018053982997027408
-0.6271071244857453 0.7561637289706257 0.5002760993888563 -0.5761480800083648 -0.7162937669682944 -0.46076237479269805 0.8147728664901965 -0.4997825932510587
0.8986507190590418 -0.7123550695667914 0.7070038189214595 0.6445268757928576 -0.47458738061580186 0.9974037015528628 0.9066181780509598 0.34867102908444975
0.2134847286882235 -0.5128320975027573 0.8843914059813219 0.5152963909370337 0.5904851853082983 0.9999999854239746 -0.3453916059541493 0.058024353876406476
0.909599618144785 1.0 0.46499468651969894 0.9078795909849492 -0.9987092181140921 0.8784533326084156 -0.38808872431249053 -0.6524317121261359
-0.6795566868975949 -0.06734222603184602 0.23407054356952883 -0.9999963229496711 -0.4433950093370649 -0.8210737606062883 -0.46078805801583655 0.2086647946365581
0.22607031155179522 0.9263799674981703 0.7022148736812698 -0.9996826452464856 0.07786852145187316 0.8710335426343644 0.7183652372296463 -0.780336143686237
-0.09244278116108344 0.2845719237262035 0.419849336692903 -0.0732403585580404 -0.06347238649036907 0.13359597672931295 -0.5139405000301841 0.26470531825410804
0.9999883480168107 0.4864512139374941 -0.30477549819540833 0.9411048267146465 -0.5144874134905331 0.07466610732608969 0.186937870183998 -0.9498121099708211
-0.5710138903811098 0.9047794208376626 -1.0 -0.3378237103984284 0.019371611816091504 -0.9368303939590377 -0.8135518931795382 0.991739628523648
-0.22726354615810224 -0.7659235173244495 -0.6768612416997921 0.49653809120072967 -0.46450501729903315 -0.4686927414715389 -0.19859781802847537 -0.9013164694729081
0.20234714586282657 0.8558674170953248 0.9812599824693088 -0.3431614366161687 0.6131066949043958 -0.3311371860839066 0.16431967080900642 0.9837601335729158
-0.2196565136145297 -0.9949193679097296 0.17196881279617163 -0.1447028182772481 0.35720257679844636 -0.3635124388378525 0.31494879783185786 0.28872707727163055
-0.1954682423027554 0.18940053345116076 -0.5965548717010553 -0.6780149847370135 -0.355866045247287 0.15582389408754646 0.9999891553277912 0.886200790245523
-0.6834713219667187 -0.16938112414899117 -0.17687948856347047 -0.9583508298977882 0.4785059336306472 -0.002804036802326273 -0.2157617449039268 -0.041092080445813056
-0.6486495517740267 0.4692466820983027 0.9981481146965496 -0.19547215984686928 -0.9559031303873987 -0.16049451341252624 0.46625788377386795 -0.9976750953441061
-0.7556212088863062 -0.27866330970566866 -0.236217771566285 0.4622442702149673 -0.6101042551624416 -0.6712055963965217 0.49791064134037094 -0.47487401200646084
