Example world6-1/best_ind_gen9726/W2.npy (npy, 560 bytes, 1 tensors)

array f8 [6, 9]
000000 24 70 fc 51 00 27 e9 3f 3c b7 52 cc 81 cb d6 3f
       0.7860108948984856 0.3561710830061775
000010 cc 60 a8 e3 84 86 d2 3f 2a 11 04 33 c3 93 e7 bf
       0.28946039421272185 -0.7367874142078439
000020 fd 8b 9d df 00 2d c8 bf a1 7e 36 86 fe 6f d1 3f
       -0.18887339514466808 0.27246058565831716
000030 62 d8 04 b5 c4 ef ef 3f 00 00 00 00 00 00 f0 bf
       0.9980186019445336 -1.0
000040 cd 8c 38 3e a5 6f cf bf 24 f9 86 ba 8a 11 d6 3f
       -0.24559464967851455 0.34482067313719456
000050 ac a5 b2 aa c0 14 ed bf 7e 8d 56 aa e8 34 d4 3f
       -0.9087832769338795 0.31572929987506615
000060 3b 40 7b 2b b3 88 ab 3f a9 c8 f6 e4 5e 5f d6 bf
       0.053777312333864256 -0.3495709644295269
000070 12 3e a0 16 05 0e e2 bf a0 6e c1 04 61 b9 e1 bf
       -0.5642114107049017 -0.5538792698748303
000080 32 f7 dc 87 47 60 e3 3f e2 a9 91 1a 71 90 ce 3f
       0.605502858503064 0.23878301427187326
000090 8f 58 81 75 e3 8a eb bf bd e6 fe 2d 07 72 ef bf
       -0.8607041640305101 -0.9826694391587903
0000a0 3f ab 25 e9 5b f8 eb bf 6f 15 6f 2c ae ff ef bf
       -0.8740672639517938 -0.9999609821176544
0000b0 bb 37 80 1d df 8e df bf e2 6c 54 da bd 7c e4 3f
       -0.4930951870054476 0.640227247643818
0000c0 c1 52 f9 04 c2 6e d7 bf 3a 07 0f a9 40 75 ec 3f
       -0.36613512502416873 0.889313059037
0000d0 ac 3c b0 28 88 a8 eb bf f5 37 48 29 ff 64 e3 3f
       -0.8643227381416145 0.6060787016192523
0000e0 af 6c 07 84 21 75 de 3f f4 e7 d0 8e c6 eb e6 bf
       0.47589910405595054 -0.7162812032104271
0000f0 d9 67 1a 7c 0c c6 d3 3f 93 41 0f b8 c3 09 d6 3f
       0.3089629375405117 0.3443459794480301
000100 d5 45 a2 eb 63 06 c2 bf 85 60 a3 1d 2c a9 d5 bf
       -0.14082001691399051 -0.3384504594264473
000110 b0 bb 3c d3 df 7f e0 3f 4e d9 b4 ab f4 80 b1 3f
       0.5156096578337976 0.06837395851184633
000120 fc be 89 6c 76 ef dc bf aa 02 8b 58 8c 31 e5 3f
       -0.4521156368200392 0.6622983674388554
000130 00 00 00 00 00 00 f0 bf 4c d6 a1 9e 38 a5 d2 bf
       -1.0 -0.2913342999594064
000140 c2 09 54 38 ce 20 eb 3f e9 58 75 b1 27 96 d7 3f
       0.847754583374176 0.3685397370330877
000150 8c 58 1a 9c 41 4d ec 3f 8d 74 55 e4 11 3f e9 3f
       0.884430699242118 0.7889489612240524
000160 23 54 56 ca fa ff ef bf 4b cf 79 05 2d 9f cc bf
       -0.9999975158594946 -0.22360766188978184
000170 a5 6e d4 6d 6b 75 df 3f ee 72 2e 54 8a 15 e8 bf
       0.49154172635619836 -0.7526294368904851
000180 77 eb 47 32 d0 ee df 3f 41 6d ba 29 1b fb eb 3f
       0.4989510050797245 0.8744026007656559
000190 c6 22 28 4a 3d 25 cb bf 90 f3 8e 14 98 c8 ad bf
       -0.21207395668922951 -0.058171036252566144
0001a0 07 4c 6c fd d2 32 ea 3f 92 16 0b f8 5b 70 de 3f
       0.8187041234654097 0.47560786459903526
