Example world3-1/best_ind_gen10466/W1.npy (npy, 5888 bytes, 1 tensors)

array f8 [9, 80]
-0.8918991343834238 -0.6662592360742413 0.9961093028412347 0.3976534284735183 -0.9997029475794932 0.9061667376160536 -0.16990873548023733 -0.05674043853137297
-0.9999994879130591 -0.26429200044665996 -0.8260753402102955 0.7446550726001815 0.8055009619578085 0.7093708042305096 -0.9092734349312799 -0.23051713004885604
0.6105227522145903 0.80159750184271 -0.7968378743429706 0.751960541102418 0.9987236773134055 0.9440260370569269 0.20731559590139395 -0.9259828901140006
0.742850161601864 0.8457060689344753 0.9154589283804365 0.6939351963184541 -0.7720736396020363 1.0 0.2262960818833516 -0.44609305560586704
0.9999595501079956 0.2152873663815997 0.1652397929953224 0.3126129070926963 0.12475637006847742 0.11375558359313641 -0.8006290938346042 0.19829671520704412
0.9440108640230069 0.6739862973085037 -0.3398598591875363 0.47111058834587066 -0.4528194594529777 0.2566864162736159 0.9998671409278587 -0.30654967213045414
-0.9999009194403422 -0.6378966857683749 -0.2716260343885867 0.043863041846004716 -0.1349839664101066 0.2961398118327014 -0.5169807687007142 0.7794911930968083
-0.8284066415056512 -0.8091660057488538 -0.2212747147680662 0.5983069702875061 0.851588028226114 -0.690797082846253 -0.49988113530860134 0.894739250012286
-0.9429189626346383 -0.09380922977637703 -0.6353851907148544 0.8432200620511523 -0.5601506480905762 0.9130571279473801 -0.26265775092217564 -0.7821881302899485
0.6209921691260469 0.5737597046195576 0.9993755885974226 -0.7214331631477953 -0.3619215457461331 -0.6870760272414822 -0.4169777139863464 0.9180919791410541
0.9547539439544205 0.26233696467404805 0.4414067313584982 -0.9257725818729269 -0.31423043816374013 -0.36688308668346936 -0.00575725162200469 -0.8169678988263301
0.8478137393821901 0.1641112760391052 0.999657833734267 -0.6101900804441901 0.528574117196344 -0.9085080252526276 -0.07829037966202072 -0.7989773018917117
0.7306629419264866 -0.025101651046778545 0.50345672309131 0.138118381617595 -0.4446636173850374 0.5947624187912579 0.2142076443043648 0.7476972977400368
0.3047539226457909 0.7080693491903668 0.18710843858197374 0.38281775072635416 -0.4408568890156998 0.681440652960761 0.99604056979218 1.0
-0.39994263280840503 -0.9600779654818664 0.057388953622985545 -0.382138491560519 0.009343332608459055 0.9996816743593572 -0.248954181983677 -0.4458551494824399
0.14114142574653302 -0.9313004263469326 0.6702935776079875 -0.9999449768039614 0.8716118495599717 -0.9993406865171599 0.5813086701349199 -0.21167853810300222
0.8728972765545581 -0.3918433403808031 -0.9999554401021663 0.008860860975169672 0.16903271333986916 -0.43013626521657844 0.1733807160689289 -0.0363020200796495
-0.45795747612216614 -0.4146380966941402 -0.6317816191145917 -0.7057491850697382 -0.20891933977349053 0.9991714133353525 -0.9000229861700673 0.8894438447716957
0.2594275641073601 -0.3253105792753642 0.3040759088996931 0.9808905999906739 -0.23159411917458061 0.37004424829082166 -0.318400028141883 -0.5321179424521345
0.49242567662064946 -0.6663464845076094 -0.3195975282681075 0.9759580656708782 -0.9999825973126322 0.8516055496249977 -0.005345485135007989 -0.9981622738298416
0.2727325238435536 -0.38775999590509486 -0.6049763111694284 1.0 0.17444578814926404 0.14817232763470023 0.4462931958546073 -0.8165496572367444
-0.9863151235783061 -0.041534112070573906 0.5265500553838418 -0.6866452515256066 0.9995449792651175 0.6364459419012645 0.8643455098494627 -0.8876831662066138
1.0 0.1929476833445428 -0.6641393340920514 -0.3541702608869517 0.7494371051005222 -0.9046643219797543 0.15504492162669054 0.16503913250399965
-0.7230889596461532 0.19119690115811874 -0.09078698872683552 -0.32219356148095823 -0.99999329329273 0.999269304735589 -0.41390883112941435 0.7948463054146634
-0.7993604115020693 -0.05171144055368937 0.48307563146259924 -0.6139183586762571 0.6883036138576666 0.6525480524550705 0.45111957468812136 0.954777430552879
-0.09262546901100512 -0.9994512846032648 0.72186331188895 0.802639183471495 -0.009226258226019574 -0.609398023230734 -0.048882333197507816 -0.16476908283339256
-0.982772331377809 -0.0873432365413599 0.7475030717216867 0.24708682847941027 -0.34563724573627813 0.7614907100356213 -0.9988683309885473 -0.38800796590295844
-0.24876872272110698 -0.21810296718693567 -0.148819867410047 -0.8654520879785895 -0.7091950460050302 0.9980638322742261 0.7674593396438939 -0.5969078328983463
0.2646795953899128 0.18355144425759576 0.09881475984028466 -0.9733479105498587 -0.9980322302238253 0.2085207383037535 0.9999670836317984 -0.9842942514191712
-0.585030249792573 0.4888303695765684 -0.9976033981655973 -0.7397281553596319 -0.1753069343468029 -0.7913698742566404 -0.2777123815886267 -0.12182702218257967
-0.9536442754019798 -0.9999016113031892 1.0 0.9995449359598205 0.5501629115400147 -0.15940369469013713 0.9999966548474895 0.3073707824081396
-0.9978772698334624 0.7459533170028843 -0.7949095448079297 -0.25658072110162494 0.9716719107497175 -0.15968377259150848 -0.3793347227215194 0.5482846020377459
00000000: 8f3d b00d 708a ecbf 1119 b3e3 fe51 e5bf
00000010: 0a39 de9d 20e0 ef3f 05e8 9b5d 2773 d93f
00000020: 0033 3209 91fd efbf 3a16 d962 51ff ec3f
00000030: 689e 18c7 91bf c5bf 3bb5 b42f 150d adbf
00000040: 884e 13ed feff efbf 13d2 a0fe 28ea d0bf
00000050: 8587 478d 356f eabf fec8 f3df 36d4 e73f
00000060: a52b 10f4 a9c6 e93f 4008 9d66 2ab3 e63f
00000070: 86d8 449a c418 edbf 8222 5dd7 9581 cdbf
00000080: ed37 c702 6789 e33f 1a08 dfcd afa6 e93f
00000090: 098d 5024 b27f e9bf ec5a 7d8d 0f10 e83f
000000a0: 71a9 795b 8bf5 ef3f 6c6c 7717 7635 ee3f
000000b0: 5172 2c44 5189 ca3f 083f b6de a6a1 edbf
000000c0: f710 bdb3 6dc5 e73f fc45 832c 0610 eb3f
000000d0: af34 c785 704b ed3f 2c65 b795 b734 e63f
000000e0: d338 06c7 d3b4 e8bf 0000 0000 0000 f03f
000000f0: 8c72 731f 45f7 cc3f b331 33e3 c98c dcbf
00000100: c42c a12b abff ef3f 9feb ec52 898e cb3f
00000110: ffd3 74d9 9326 c53f ca51 1191 d901 d43f
00000120: aa6a 6991 08f0 bf3f 2719 45ff 151f bd3f
00000130: 1bdd c7e7 c09e e9bf 2af7 5b69 c961 c93f
00000140: 4485 8145 5635 ee3f 8b8c 1cb6 4b91 e53f
00000150: a7c0 1b91 43c0 d5bf 59ab 6f06 ad26 de3f
00000160: aff2 5578 fefa dcbf 723f cedc 8c6d d03f
00000170: 672a d45f e9fe ef3f b496 1984 829e d3bf
00000180: 3b92 8736 30ff efbf 3f43 734f a669 e4bf
00000190: d23b 9c29 5262 d1bf 6a9d 7674 3775 a63f
000001a0: 5d9e 9b94 2747 c1bf eb5c b765 f4f3 d23f
000001b0: 5260 c740 1b8b e0bf b2dd bb83 97f1 e83f
000001c0: 7eca 21a5 4e82 eabf a53d 771b b0e4 e9bf
000001d0: 3e27 aed7 ba52 ccbf 5e51 cba8 5425 e33f
000001e0: 5dae 5c89 3540 eb3f 45e6 df7b 021b e6bf
000001f0: 366b 0272 0dfe dfbf c102 2835 b4a1 ec3f
00000200: 9768 6963 642c eebf 4dd6 f3b5 e103 b8bf
00000210: ec74 cf52 1355 e4bf c0e7 baa3 a8fb ea3f
00000220: 3a3b 4c0d c1ec e1bf e93c fd94 c337 ed3f
00000230: 2b1b 9074 62cf d0bf 5a45 dd66 af07 e9bf
00000240: bafd 2ef8 2adf e33f db50 e34f 3d5c e23f
00000250: 354b ae83 e2fa ef3f 1207 3f00 fb15 e7bf
00000260: 5ca2 acfc b829 d7bf c8c4 5bdd 86fc e5bf
00000270: 5cdc 2e4b c3af dabf 092f 246e 0261 ed3f
00000280: 2f5c a024 588d ee3f f7a4 f3fa 20ca d03f
00000290: 05d1 da04 0240 dc3f bfaf 55d2 ed9f edbf
000002a0: 7f8b d4fb 591c d4bf c8b4 b032 037b d7bf
000002b0: 81d2 e676 ea94 77bf dbe8 eadc 9924 eabf
000002c0: 04df 7747 4a21 eb3f 9613 bf29 9901 c53f
000002d0: 3486 e26c 32fd ef3f b73e fb58 ad86 e3bf
000002e0: 0fda 5b44 14ea e03f 6ea2 136c 7f12 edbf
000002f0: b363 3d9c d60a b4bf 0ae1 bbd8 3891 e9bf
00000300: 2726 ff3f 9761 e73f 053c 4949 3fb4 99bf
00000310: b51c 1446 511c e03f 0613 03f6 dcad c13f
00000320: 5df2 9863 5e75 dcbf 5825 3332 4b08 e33f
00000330: c993 6bf5 276b cb3f a93b 23e2 22ed e73f
00000340: 43d9 c598 1681 d33f fb52 420d 81a8 e63f
00000350: 22f2 4158 2bf3 c73f 90ab ec05 1680 d83f
00000360: 977a 22d0 ff36 dcbf 0d34 d4a0 5cce e53f
00000370: 4de4 1779 90df ef3f 0000 0000 0000 f03f
00000380: 100c 0cfc a898 d9bf cb5a eb6c f5b8 eebf
00000390: 8cbd ecbd 1562 ad3f 93e4 f200 f574 d8bf
000003a0: 676f e9df 9822 833f 3516 396c 64fd ef3f
000003b0: f341 e90a bbdd cfbf f5ef 7109 e488 dcbf
000003c0: 1599 d817 ec10 c23f 5b26 3d8d 36cd edbf
000003d0: d271 5184 0b73 e53f 1085 a59b 8cff efbf
000003e0: 1b51 9588 3ee4 eb3f 92e8 c451 99fa efbf
000003f0: 208b e3a3 149a e23f 2170 3547 4818 cbbf
00000400: a937 f244 c6ee eb3f 0dd2 0517 f613 d9bf
00000410: 6146 168d a2ff efbf f471 d2a0 a425 823f
00000420: 55db df2b dda2 c53f 3e71 fb41 5a87 dbbf
00000430: 50f5 a2dc 5631 c63f 38aa 0aaa 2d96 a2bf
00000440: 61d1 b9df 2c4f ddbf 7687 3e3a 6e89 dabf
00000450: 88f4 0916 8e37 e4bf a0b3 a150 7f95 e6bf
00000460: 701e ea71 debd cabf 33f3 eb53 36f9 ef3f
00000470: 58f5 6701 fdcc ecbf ac88 1df0 5276 ec3f
00000480: 5a69 e111 769a d03f caf3 c176 e3d1 d4bf
00000490: 2b71 0ecd fa75 d33f 8a3d fdae 7463 ef3f
000004a0: fc7e e647 e0a4 cdbf cfd8 1e12 ceae d73f
000004b0: 2f8d fa82 aa60 d4bf 984b 0e35 1c07 e1bf
000004c0: 95f7 32fc e683 df3f db78 d8dc b552 e5bf
000004d0: 32d0 f230 4974 d4bf ea5c ca68 0c3b ef3f
000004e0: 4edc 0081 dbff efbf 3468 1748 5a40 eb3f
000004f0: 81b8 60bd 25e5 75bf c367 4602 f2f0 efbf
00000500: acab 9d1d 7374 d13f a901 474d 0fd1 d8bf
00000510: 2e7a ea47 f75b e3bf 0000 0000 0000 f03f
00000520: 1055 8355 3d54 c63f 787e ae92 4ff7 c23f
00000530: f5dc 2756 1190 dc3f d989 2cbf 2c21 eabf
00000540: 7035 eabb e48f efbf 22e5 058a f543 a5bf
00000550: 3094 7280 7fd9 e03f 9532 6876 fff8 e5bf
00000560: c363 9ac0 45fc ef3f 3e69 44e1 c35d e43f
00000570: b3ee 27ea b7a8 eb3f 0026 0287 e667 ecbf
00000580: 0000 0000 0000 f03f 1be2 e67a 82b2 c83f
00000590: d833 fd21 a140 e5bf 6c6a eebd b9aa d6bf
000005a0: de19 1a86 63fb e73f 985a 9897 02f3 ecbf
000005b0: 1a15 e611 83d8 c33f 161b 5596 0020 c53f
000005c0: aeec 3875 8b23 e7bf 890b c9da 2379 c83f
000005d0: 9eec 7beb d03d b7bf 02b8 62be d19e d4bf
000005e0: ec2b 5def f1ff efbf 6a8d f79e 03fa ef3f
000005f0: b07d 4e77 7b7d dabf eb46 e384 616f e93f
00000600: abca 2349 5c94 e9bf 60a8 0304 ec79 aabf
00000610: 2417 a80d b6ea de3f 74b6 1d1d 38a5 e3bf
00000620: e297 e74c 9506 e63f dd9d 0b74 ace1 e43f
00000630: 00bd f7a2 24df dc3f 73df e565 898d ee3f
00000640: 41ce 2d80 4db6 b7bf 661e aa42 81fb efbf
00000650: 67d9 9716 8119 e73f 60f1 6f5e 38af e93f
00000660: ddfa c26a 37e5 82bf d5bc 8048 3080 e3bf
00000670: 14f6 deec 1a07 a9bf a9a6 143f 2717 c5bf
00000680: bccd d5f5 de72 efbf 99d0 7858 205c b6bf
00000690: b388 d68f 8beb e73f eeb3 cb8b 8aa0 cf3f
000006a0: 8be0 adae eb1e d6bf 2df2 f9c3 215e e83f
000006b0: a663 d3b7 baf6 efbf 0f01 095d 1fd5 d8bf
000006c0: 9d6b 2d4c a7d7 cfbf d83d 9d4b ccea cbbf
000006d0: f2b6 c287 870c c3bf 43ef c393 c8b1 ebbf
000006e0: 5075 22cf b9b1 e6bf fc05 de8f 23f0 ef3f
000006f0: 0ff8 98e3 068f e83f c5c9 a074 de19 e3bf
00000700: 6490 87af 82f0 d03f 0527 1c1d 9d7e c73f
00000710: 3149 e091 ec4b b93f 6521 6e84 aa25 efbf
00000720: e949 a549 e1ef efbf e8b4 c6bb ceb0 ca3f
00000730: 62cd 28f8 baff ef3f 798e 6fa8 567f efbf
00000740: 38f4 c05b 91b8 e2bf 7dde a72c ff48 df3f
00000750: 99fd 2ff6 5dec efbf 9d66 6661 daab e7bf
00000760: 6c09 e426 7570 c6bf d419 1fea e652 e9bf
00000770: e183 2727 0ac6 d1bf 2f12 0b44 0e30 bfbf
00000780: d6cf dbff 4084 eebf 137a f8a9 31ff efbf
00000790: 0000 0000 0000 f03f 148e 5aa9 45fc ef3f
000007a0: 0b2b 1140 ef9a e13f 6f21 c71b 5767 c4bf
000007b0: 60bd 15fc f8ff ef3f cd16 8c80 f6ab d33f
000007c0: 5a68 eb4f 9cee efbf eed7 9b7d d9de e73f
000007d0: 464e 4724 e66f e9bf cd98 7a8b d16b d0bf
000007e0: 6b94 e3b0 ef17 ef3f 45c0 7d92 8470 c4bf
000007f0: b5df 1425 0547 d8bf 3ae1 5426 8c8b e13f
