Example world3-1/best_ind_gen10466/W2.npy (npy, 560 bytes, 1 tensors)

array f8 [6, 9]
0	0xbfcb6a527768a2fe	-0.21418219404701938
1	0x3fe531188cc7e7ae	0.6622431516291181
2	0x3fec72aafdbbfaa7	0.8889975505588453
3	0xbfe14bd361d7d4ad	-0.5405060683248358
4	0x3fdf053295b49506	0.48469223613422263
5	0x3fe3468cd7b7daa9	0.6023620808835705
6	0x3fd5ddbc80149c37	0.34165871150839017
7	0x3fd20a86c98f7ed6	0.2818924873699705
8	0x3fe602934b2aad19	0.687814375696152
9	0xbfd86b4e0c2ef798	-0.38154936971465636
10	0xbfeb3f0c7b95c203	-0.8514463819283836
11	0xbf420210e814adbe	-0.000549562697562171
12	0x3feaf30595449aac	0.8421657481565794
13	0x3fd4cf8914b550f0	0.32516695997516276
14	0xbfc392a196644221	-0.1529123291334296
15	0x3fd75eb9bc2e162c	0.3651565873809399
16	0xbfc1096c47cebf9c	-0.13310006624442117
17	0xbfeda9c213395a0c	-0.9269724250287381
18	0xbfd25ff5c56ca256	-0.2871069362613857
19	0xbfcb37591533ada8	-0.21262658629653441
20	0x3f83951820e175ff	0.009561718467177903
21	0x3fed77b0b63110f9	0.9208606298857652
22	0xbfd1e344873e078f	-0.2794963188863386
23	0xbfdfcf5be1d219e7	-0.4970311837463712
24	0xbfeaac440d336c05	-0.8335285432652887
25	0x3fd4fed53440a6e3	0.32805376150882476
26	0xbfe70f39ae3be18c	-0.7206085589414655
27	0x3fefff002effe9ed	0.9998780172311946
28	0x3fed5533f405779b	0.916650749782764
29	0x3fe3247c0ad6c673	0.5982036792467639
30	0xbfed8b182d7ef72a	-0.9232293022721241
31	0x3fd4e8dfbc6e42df	0.32671349908291164
32	0x3fe77d82f775f0b4	0.7340712388245465
33	0xbfbb62d118b7f1ec	-0.10697657445411551
34	0x3fe4b0c3e30756f8	0.646577781119702
35	0xbfd2073d3db741ac	-0.2816918471044356
36	0x3fefffffffffa452	0.9999999999973943
37	0x3fd75e0f0434f3ba	0.3651158848841153
38	0xbfc0802580fa6c33	-0.1289107208038743
39	0x3fefe27f05904d51	0.9963984593072529
40	0xbfefffffffffffb6	-0.9999999999999918
41	0x3feffe0a2b91e65a	0.9997607089018843
42	0xbfe8ae97cb30901d	-0.7713126152561959
43	0x3fefff8cc28360ba	0.999945049198707
44	0x3fee007631339c6c	0.9375563584297999
45	0xbfc568fac1babc19	-0.1672662206596847
46	0x3fe0c90e84101d3a	0.5245430545191205
47	0x3fe92e255d93a1e3	0.7868830516500193
48	0xbfdde6312698072f	-0.4671748043912087
49	0xbfd483689889cba4	-0.3205205430633049
50	0x3fd4af303cf98130	0.32319265322259394
51	0x3feffffd1a97ef92	0.9999986190227779
52	0x3fdd01e1fbca8267	0.45323991383523893
53	0x3ff0000000000000	1.0
