Example world5-1/best_ind_gen8988/W1.npy (npy, 5888 bytes, 1 tensors)

array f8 [9, 80]
-0.4766791401104279 -0.28854523216789724 -0.5632424867271653 0.4599015561354626 -0.5488274025033374 0.32272237003034177 0.8656410419787693 -0.9964392524031931
-0.8493449916515476 -0.3872105971963438 0.3127323250479515 -0.9705009449807008 -0.019637664051945867 -0.16140745036628915 -0.9415641784126544 -0.10028547551984589
0.5617183634264342 -0.7430170668206423 0.9985981809378486 0.530077142374452 0.7212427536088981 -0.9314922588256632 -0.8884440554486692 -0.9970685460417285
0.9999604041685456 0.37941990295529526 0.3649159928034146 -0.9254563303032325 -0.1728833821033557 -0.673804266571129 -0.40412616534901635 0.6996829539883807
0.019855078269929976 0.8100467857026514 -0.2168930112023525 0.8520536302911637 0.20904395433362272 -0.2580282740918621 0.4914941792586654 -0.7236561935862083
-1.0 0.16899728586732177 -0.35964770763557113 0.7996059103372851 0.7406158268951156 -0.883729587856215 -0.859383838497298 -0.4627337906327526
0.008086854764660562 0.5795644564090568 -0.6600993702862261 0.36661185595696966 0.9950844369829678 0.9656428239269321 0.47575140159973095 -0.6314624364408437
-0.9999999927454247 -0.2209166723639774 -0.7449919626853728 0.10725825831607923 0.9999416452364916 -0.29035818618495807 1.0 -0.5985284522683861
-0.0335038659434574 -0.6371038167051465 -0.9912918939399276 0.09199136886137296 -0.35894581820577254 0.2635510056859966 -0.7935489793866944 0.7833740261902329
0.4554021214038176 0.4212139050466755 -0.7417547899079106 -0.8508250073842778 0.25080144418832073 -0.8230302117950958 0.7232426826076468 0.2770606240199281
-0.327108399568101 -0.19783388611474162 -0.9161466087103158 -0.35378721383107253 -0.6408199904190952 -0.21648175001129558 0.5308459197136147 -0.7406272252298205
0.15440619557086555 0.8595967387484224 0.46631124373466026 -0.4438579707300155 0.8703076836830591 0.5043789092433094 -0.11316104169756762 -0.07229367524519349
-0.4343133583478328 0.954677840459881 0.05809219425096233 -0.25000263863929095 -0.2895026632929697 -0.3345731936870717 0.9913120618249477 0.6903773545023614
-0.87609339597933 -0.9921935980340184 -0.0069002978496721405 0.9999999978350651 0.998516274046965 -0.590135050858813 0.909802477245292 -0.1492130675254233
0.9685862148736981 0.9598936790270731 0.5291775097168098 0.39339018340141907 0.12241627782757405 -0.6738315310925561 0.45041968074790767 0.7887347366877453
0.9833205683794666 -0.9962041503202872 -0.5494151923558915 -0.7423086431054386 -0.7876326470958954 0.9996147713991488 0.17731474264187128 -0.4893581665067392
-0.358451300512484 0.9999925851740591 0.9940647971677232 0.37382210740664323 0.12428097781280614 -0.5643142543372828 -0.9919406268637216 -0.39215956457645507
-0.9999881940119294 0.48529078007974985 0.35713556291967535 0.8220694760964833 0.4523754466559301 0.9999999479480856 0.9695270931367694 -0.9986192146648069
-0.9999858782137098 0.47224378770970127 0.02132210872492685 1.0 -0.9995325114110798 0.8278256690875904 0.9964696536498046 -0.7763869504078025
-0.9570441131448565 0.9999999999981058 -0.32781474477016875 0.03743043809990262 -0.25493816594077257 -0.19354621982529552 0.9880899911511491 0.3605892782570509
-0.28423535995595844 -0.501475688640866 0.43255302693948944 0.019013457791959856 -0.6402866173501208 0.2581544540303175 -0.48469028248692353 -0.4692410900172142
0.46740087658430973 0.47697356534294505 0.3706915961597646 0.025895491453334085 -0.29631073016188086 0.9999851529368315 -0.8071815569152693 -0.8634019199536049
0.2538957924746762 0.5802779936813347 -0.04720745670503228 0.7589342423913384 -0.42077574015789626 0.22856637228208315 0.9999078026516982 0.1437307991572937
-0.8168563841395312 1.0 0.4818722343401499 0.9682866793769191 0.9999981273143447 -0.4527905759365084 -0.5527700405921665 -0.4089254551005071
-0.36538590732930665 0.7949820237871763 -1.0 -0.7452196629286222 -0.7290432837596733 -0.19489842058204215 -0.03491100689908449 0.4240463363432762
0.6053961198727458 -0.9739029333094161 -0.7134723144778857 -0.6233423729442263 -0.4814729500659321 -0.34730773916454083 -0.6866233850697424 0.5334705919744795
0.0504962205444585 -0.8047126858607849 0.2810835934198487 -0.7267417683043661 -1.0 0.5592665507703561 0.3108241126133178 -0.9977073734232348
-0.996130417010054 -1.0 0.4717530157894287 -0.6115750718995919 0.9384951363074217 -0.9998325435398595 -0.9999503027539216 0.5549189802269675
0.9995654988461028 -0.007858083809136426 -0.7027772312078094 -0.061527239564284804 0.004220692606326581 0.897078195292532 0.09723006205344187 -0.030249884693398874
0.6325758521727739 1.0 0.4129841497783426 0.8936451269025685 0.33294892135960746 -0.8146071425153167 0.06419317385936156 -0.06289208466691087
-0.10540089988341089 0.1371919972807473 -0.5338733991588197 0.1697575830450836 -0.0683519639294735 0.3275386469675939 -0.95813931910512 -0.19952888980951872
-0.061779262607115026 0.9998279586550731 -0.972326319579191 0.9999997070094874 0.718462729671091 -0.2517539408455461 -0.813420465600031 -1.0
00000000: 8e6b 5d39 e981 debf 6dfb e46b 8677 d2bf
00000010: 9abf 861b 1506 e2bf f2cd beef 066f dd3f
00000020: 97d0 1c7c fe8f e1bf 8af2 3dba 7ba7 d43f
00000030: 43f9 abd7 54b3 eb3f 88b7 3092 d4e2 efbf
00000040: f645 458c d52d ebbf 05de e7f4 0ec8 d8bf
00000050: 5de9 1e71 ce03 d43f 0dbc 6dff 570e efbf
00000060: 99e4 7d53 e51b 94bf cdb4 53d4 ffa8 c4bf
00000070: 3bc2 2b33 4b21 eebf af1d 9f15 4fac b9bf
00000080: 6c55 0fca 98f9 e13f 07aa 4bba cbc6 e7bf
00000090: 0c24 1f2c 84f4 ef3f 7f5f db56 64f6 e03f
000000a0: 4045 e7ae 6b14 e73f bd44 84da c8ce edbf
000000b0: de48 4f3a 226e ecbf e5d2 a34b fce7 efbf
000000c0: f15c 26f6 acff ef3f 463f a96a 6a48 d83f
000000d0: c231 b89b c85a d73f f1e9 1098 569d edbf
000000e0: bef0 13ec 0a21 c6bf 2681 1af7 cd8f e5bf
000000f0: 4671 e8fd 33dd d9bf 4e5c 9e81 cd63 e63f
00000100: 2bc3 50bf e354 943f 7254 9a3c e7eb e93f
00000110: 1c2b ec72 26c3 cbbf 663c 91f9 0544 eb3f
00000120: f20b a5c9 f3c1 ca3f 69be aa05 8983 d0bf
00000130: f5c7 8500 a474 df3f fe04 a008 3128 e7bf
00000140: 0000 0000 0000 f0bf 3cda f4fb b3a1 c53f
00000150: cd12 98d1 7704 d7bf 47c8 5222 5f96 e93f
00000160: bd43 6df6 1fb3 e73f 3833 cb45 8347 ecbf
00000170: a4d1 2189 1280 ebbf e764 6130 6e9d ddbf
00000180: 500a ef45 d78f 803f e96d 46c2 ca8b e23f
00000190: 46aa efb6 881f e5bf 9a4e ea92 9176 d73f
000001a0: a336 3351 bbd7 ef3f aa43 8cc7 8be6 ee3f
000001b0: 8e68 b901 b672 de3f 124f 25b6 f034 e4bf
000001c0: 53f0 1afc ffff efbf 15e3 785d ff46 ccbf
000001d0: 6787 7062 f9d6 e7bf ed87 b1f7 4675 bb3f
000001e0: 915f 069f 85ff ef3f d993 7280 3a95 d2bf
000001f0: 0000 0000 0000 f03f 9ffb 0624 2527 e3bf
00000200: 3a8f 0831 6b27 a1bf e5f8 1c8b 2763 e4bf
00000210: 6661 28c7 a9b8 efbf 521c c610 bf8c b73f
00000220: 4cb4 8ee1 f7f8 d6bf f7f3 8f09 05de d03f
00000230: 55ae 47d4 c064 e9bf 94bb e067 6611 e93f
00000240: b956 7df0 4e25 dd3f 5df0 b22a 2bf5 da3f
00000250: 55c9 898a 74bc e7bf aab3 aa5d f539 ebbf
00000260: 9e04 2580 210d d03f dcf4 6874 4356 eabf
00000270: 78e0 9bd6 cd24 e73f 4532 cb7b 5cbb d13f
00000280: cc14 9911 58ef d4bf bca2 73eb 9e52 c9bf
00000290: 5411 58b1 1251 edbf 416f 4920 73a4 d6bf
000002a0: 3423 afec 9881 e4bf bd5b 3d8a acb5 cbbf
000002b0: 0f52 0c95 b0fc e03f 3075 dcdd 37b3 e7bf
000002c0: 3069 230c 95c3 c33f 0187 1505 d181 eb3f
000002d0: a23c 661d 0bd8 dd3f 89ad 1643 2b68 dcbf
000002e0: 410a dc7f 8fd9 eb3f d3bf ff3c df23 e03f
000002f0: 6bb8 453d 1ff8 bcbf 91c0 e29a d681 b2bf
00000300: c278 9441 cacb dbbf 0cb7 df8a b88c ee3f
00000310: 0de9 eb94 42be ad3f 3ea5 3711 0b00 d0bf
00000320: 62af bc2d 3687 d2bf 9445 40af a569 d5bf
00000330: 3164 b512 d4b8 ef3f 8f92 ef3f 9217 e63f
00000340: 2e21 7f04 f508 ecbf ea69 dbc9 0cc0 efbf
00000350: e350 8d99 7c43 7cbf 2074 d6fe ffff ef3f
00000360: 8fc6 b166 d8f3 ef3f 462e f5e6 62e2 e2bf
00000370: 76d3 b215 1a1d ed3f 082a 94ee 6919 c3bf
00000380: 94a5 8784 a8fe ee3f 6ade e1f2 72b7 ee3f
00000390: bf65 40ac 05ef e03f c8b2 1105 4e2d d93f
000003a0: 9a79 c455 ac56 bf3f ddcb a124 0790 e5bf
000003b0: 9b5e 9211 add3 dc3f 9060 69a1 503d e93f
000003c0: ec90 55b2 5c77 ef3f b67b b886 e7e0 efbf
000003d0: e502 632b cf94 e1bf c0a1 350e fec0 e7bf
000003e0: b03d 9161 4934 e9bf 6440 f81d d8fc ef3f
000003f0: 576c 5fde 3fb2 c63f 6f53 4bea a451 dfbf
00000400: f239 3ab9 ddf0 d6bf 1f15 3273 f0ff ef3f
00000410: 7c16 3efa 60cf ef3f 5055 758f b3ec d73f
00000420: 2a8d 38cf e0d0 bf3f bc72 61c4 dc0e e2bf
00000430: 7282 fe44 fabd efbf acd8 2a6e 2419 d9bf
00000440: d95a b53d e7ff efbf eb8a 5f0f 010f df3f
00000450: a9a0 be1e 4fdb d63f daf9 5ba5 644e ea3f
00000460: a2a3 3925 b8f3 dc3f 130a 0ee4 ffff ef3f
00000470: c677 b3ae 5d06 ef3f c38f 8448 b0f4 efbf
00000480: 9b78 6c62 e2ff efbf 09f3 fc01 3e39 de3f
00000490: 710b 9f7e 76d5 953f 0000 0000 0000 f03f
000004a0: 2694 f99a 2bfc efbf 17a8 f041 8c7d ea3f
000004b0: 463c bc53 14e3 ef3f ae5d 2172 29d8 e8bf
000004c0: dd2a d9f9 1aa0 eebf 5bbd ffff ffff ef3f
000004d0: 39ce fbb1 eafa d4bf 7b2f 0717 152a a33f
000004e0: 14f1 4d2b e850 d0bf 4800 355e 1fc6 c8bf
000004f0: c0f8 afe6 6e9e ef3f eabe 590d e513 d73f
00000500: 152b d881 e930 d2bf 7e73 4ebe 160c e0bf
00000510: 236b 1fe4 f2ae db3f c4f3 998d 4378 933f
00000520: 3fba 325c 3a7d e4bf ef1f 5842 9a85 d03f
00000530: 051a fe63 2a05 dfbf 8d0d e4c7 0b08 debf
00000540: 3249 c35d e5e9 dd3f 0116 0d22 bc86 de3f
00000550: 6920 9a3e 69b9 d73f d0a8 9f03 5984 9a3f
00000560: 39f2 df47 c1f6 d2bf 0e2d 0bdd e0ff ef3f
00000570: 8f55 9c6a 6ed4 e9bf 9423 3010 fda0 ebbf
00000580: c253 5123 d43f d03f fc64 ae27 a391 e23f
00000590: 86d4 5965 932b a8bf ab54 dc76 3049 e83f
000005a0: 396a bb5e fded dabf 3e5d f5b2 a941 cd3f
000005b0: bfef eca5 3eff ef3f 9c7d e754 c565 c23f
000005c0: 270f edff af23 eabf 0000 0000 0000 f03f
000005d0: 5ed9 d5a3 fed6 de3f 1871 a258 34fc ee3f
000005e0: 190b 9c12 fcff ef3f 4e65 e552 85fa dcbf
000005f0: 8ea9 d1cb 4ab0 e1bf 6926 0aac d52b dabf
00000600: a083 9992 7b62 d7bf b45c 2224 7e70 e93f
00000610: 0000 0000 0000 f0bf 9baa 13e8 d6d8 e7bf
00000620: 47b8 a394 5254 e7bf fa90 3873 6ef2 c8bf
00000630: b7d2 cd01 dbdf a1bf ab4f a53e 9323 db3f
00000640: d451 ffae 675f e33f 6f5b 017c 362a efbf
00000650: 1716 29e4 c3d4 e6bf 2535 40b4 6bf2 e3bf
00000660: c546 9ceb 73d0 debf 6e00 573d 4a3a d6bf
00000670: 3163 f19a d1f8 e5bf 900f 3deb 3012 e13f
00000680: 36bf 9eff a3da a93f 3c59 8ed1 34c0 e9bf
00000690: da8b 4b0a 46fd d13f 8d24 f0f3 7741 e7bf
000006a0: 0000 0000 0000 f0bf ddc5 29f7 82e5 e13f
000006b0: fddf 9ed1 8ae4 d33f 5996 7a03 38ed efbf
000006c0: 207d 73e5 4ce0 efbf 0000 0000 0000 f0bf
000006d0: cbb7 a68f 3331 de3f 6d71 9be2 0592 e3bf
000006e0: 6ea7 bcf3 2608 ee3f bd5d 7fd1 a0fe efbf
000006f0: 3082 fec6 97ff efbf d524 0073 e5c1 e13f
00000700: 4120 f8c8 70fc ef3f 7878 c127 e617 80bf
00000710: af26 0dad 267d e6bf 09c8 7b93 7f80 afbf
00000720: ccc9 5e8b b749 713f 588e d754 ddb4 ec3f
00000730: 3024 b5c0 11e4 b83f e919 dd65 d3f9 9ebf
00000740: dd48 aab6 0f3e e43f 0000 0000 0000 f03f
00000750: 431e 4412 556e da3f 76d7 48aa bd98 ec3f
00000760: 6397 1efe 084f d53f 1a1f 86ff 4211 eabf
00000770: e336 5abe f66e b03f 5857 d216 b219 b0bf
00000780: 44dd f7a9 8dfb babf 5dff cbe2 818f c13f
00000790: 71ed b2aa 7d15 e1bf 149c b6d1 9dba c53f
000007a0: 27c8 b1a9 837f b1bf d1b8 39a8 64f6 d43f
000007b0: ae2e 12ca 13a9 eebf aa66 2ba4 298a c9bf
000007c0: 68e6 ef10 88a1 afbf 6e99 0134 97fe ef3f
000007d0: d53e f415 4c1d efbf c9b0 b362 ffff ef3f
000007e0: 96a1 ea8c a5fd e63f fd86 a48f bc1c d0bf
000007f0: 76c6 345b 8a07 eabf 0000 0000 0000 f0bf
