Example world5-1/best_ind_gen8988/W2.npy (npy, 560 bytes, 1 tensors)

array f8 [6, 9]
0.18930288492685493 -0.7593020051176429 0.9999999999961833 -0.9666956106043431 -0.607016323732803 0.23213200344768042 0.4960613203906397 0.6341214843669475
0.5315022302922726 0.7938620602316998 -0.15398438072394835 0.5969238840994305 0.5670966362375964 0.7613639639753693 -0.7251035505472947 0.8560914121149656
-0.8024408356199061 -0.49870107721089696 -0.13791617410220852 -0.6614761353229345 -0.5460038877492148 -0.46344945889223044 0.2637070644296179 -0.6220188285340424
-0.7952164255858079 -0.7542395734598818 0.8196024601614482 -0.5575328404745465 0.24273026431027697 0.5406801608594999 -0.5636200196131544 0.7735114688688256
-0.0017533989050100016 0.9523756093697746 -0.8826951941512708 0.7451012749220418 -0.3680433253620041 0.3965244312572404 0.5399567333067639 0.41119272345754565
-0.8901664159890558 -0.7010111911681729 -0.9999999996347932 -0.8722223158807136 -0.30447999900861 0.4098917548537649 0.0035916248982938524 0.49512584927706
-0.3821123634558669 -0.7280011672099556 0.7591730235660314 0.3586321227263854 -0.02311250076480269 0.9981036913340685
00000000: 3e4f e6b1 133b c83f 5e8f f8b7 334c e8bf
00000010: b679 ffff ffff ef3f db6f 17a2 2bef eebf
00000020: d841 527f ad6c e3bf e2d4 9461 80b6 cd3f
00000030: 25db f8fa 77bf df3f 2581 a123 b94a e43f
00000040: 6567 1bf7 1002 e13f e35e 4768 5167 e93f
00000050: 13ef a69b c2b5 c3bf 3111 0d1e 001a e33f
00000060: 9afc 49d8 a725 e23f 7a11 b4f5 175d e83f
00000070: 380d 7a5c 0c34 e7bf 9272 2dd1 1965 eb3f
00000080: 0dcc 3e67 98ad e9bf 1273 46ec b7ea dfbf
00000090: f6e0 adb8 3ca7 c1bf b77c 0900 d02a e5bf
000000a0: 3ce5 2b25 dd78 e1bf 2ca0 52eb 27a9 ddbf
000000b0: 8ac2 5c98 93e0 d03f 2499 c107 94e7 e3bf
000000c0: 0c42 a4b7 6972 e9bf 6b7e ab07 bb22 e8bf
000000d0: 80aa 43f0 2e3a ea3f dc17 891c 4fd7 e1bf
000000e0: 4b25 7b09 c911 cf3f 2f9a 0f7b 404d e13f
000000f0: 0480 f3d9 2c09 e2bf c0eb bb1f 9bc0 e83f
00000100: 840b 0cbd 49ba 5cbf 440a f869 dc79 ee3f
00000110: 1eea e6fd 093f ecbf 3af0 ffa0 ded7 e73f
00000120: a037 7c97 058e d7bf 7726 1402 a860 d93f
00000130: 68d7 d957 5347 e13f f89c e648 fb50 da3f
00000140: f374 9547 3e7c ecbf 5650 8605 af6e e6bf
00000150: 6ece cdff ffff efbf ca91 31c6 3ee9 ebbf
00000160: 44cc 81ad 997c d3bf 59ce 7fa0 aa3b da3f
00000170: 9415 49ef 2e6c 6d3f 0f26 8354 24b0 df3f
00000180: 772c 1c6a 8774 d8bf 14bb 931a c94b e7bf
00000190: e016 8739 254b e83f 9de9 9925 d4f3 d63f
000001a0: 6d87 a7ab cdaa 97bf 977e 0927 77f0 ef3f
